model_lib/fourier_classification_q_ratio_model.pth (torch, 5162 bytes, 6 tensors)

fourier.coefficients f4 [3, 60]
-0.056012213 1.0147245 0.41571638 -0.018509634 -0.43171754 -0.55043393 0.13478592 -0.25390905
-0.26503283 -0.22511664 0.3176643 -0.38457924 -0.25691944 0.19532162 -0.2949317 -0.12045963
-0.70189506 -0.4596436 0.20187286 0.19194114 -0.30466843 -0.37777403 0.50461227 -0.010326806
-0.6685319 0.101209685 -0.3255054 0.38856888 -0.57982767 -0.09101181 -0.20293334 0.32470468
-0.024691667 0.043824352 -0.62839335 -0.04063798 0.40189633 0.9460067 0.046837047 -0.3980956
-0.053867128 0.6497803 -1.0340035 -1.1080053 0.45085114 -0.50665903 -0.22453825 -0.27627397
0.19428964 1.0126685 0.31893495 0.45263025 -0.4953495 -0.08529283 1.3057259 -0.48808396
0.27339447 0.059776947 -0.108935945 -0.0293419 0.9459556 -0.32938161 -0.37563014 2.3525112
0.5943368 0.74369246 -1.4269489 0.42197177 0.57007706 -1.8279934 1.8033978 -0.68115085
0.4857881 -0.1794326 -0.3018263 1.6818186 0.98717433 0.8904062 0.5135141 1.5092759
0.4244414 -0.5844439 -0.38902748 -1.0743675 -0.89413077 -0.6823315 0.38904318 -0.39198714
0.6497768 1.1692901 0.9312099 2.2465017 0.13865063 1.7458715 -1.1937026 0.32766128
0.6591447 0.09121539 1.5326474 1.6970425 0.26515517 1.0420649 -1.0158342 -0.9481505
-0.24915849 2.5222077 0.3872244 -1.5974631 1.7669739 1.0434074 0.7820622 1.7974252
-1.7876136 -0.4776523 0.086279266 0.74765426 1.7631509 2.2537625 0.96974796 -1.7577531
0.77127665 1.3324648 -1.723964 -0.05453401 0.60126 0.4991497 -0.68973297 0.80136883
0.7760276 -0.8121118 0.9912209 -1.9152856 0.7149032 1.1650791 1.1660733 -0.6075915
0.32647568 0.5216592 1.4402397 0.8293285 0.75347114 -1.6280037 1.0041554 -0.86461985
-1.1907294 -0.8911062 1.7235255 1.0501413 0.47271407 0.667148 0.6950185 -0.18150131
-1.2057333 0.08224516 -2.2553005 -1.0962086 1.9022876 -1.3210735 0.32978505 -0.73564327
0.7885455 2.0859282 -0.9401408 -0.86538845 2.008739 -1.6568724 -1.0550818 -0.926043
0.8467559 1.0620211 1.114466 1.1295506 -1.1621181 -1.2255191 2.28605 0.55218536
0.9457058 -0.19307862 0.78013945 -0.27743882
00000000: 106d 65bd 7ee2 813f c7d8 d43e 84a1 97bc
00000010: 150a ddbe 3de9 0cbf 5205 0a3e 5e00 82be
00000020: 62b2 87be fa84 66be e5a4 a23e 92e7 c4be
00000030: f28a 83be 6402 483e 4a01 97be 8ab3 f6bd
00000040: 65af 33bf 6856 ebbe c2b7 4e3e 388c 443e
00000050: 80fd 9bbe 996b c1be 452e 013f c431 29bc
00000060: e824 2bbf 0647 cf3d a5a8 a6be 80f2 c63e
00000070: 966f 14bf 6664 babd c2cd 4fbe b13f a63e
00000080: 2e46 cabc 2a81 333d 63de 20bf 0374 26bd
00000090: 5bc5 cd3e 7f2d 723f 34d8 3f3d 30d3 cbbe
000000a0: c7a3 5cbd 0058 263f 3a5a 84bf 1ed3 8dbf
000000b0: f6d5 e63e 68b4 01bf 5bed 65be c873 8dbe
000000c0: ddf3 463e 1f9f 813f 714b a33e 27bf e73e
000000d0: 739e fdbe 02ae aebd 0722 a73f 24e6 f9be
000000e0: 5cfa 8b3e acd8 743d cf19 dfbd 6d5e f0bc
000000f0: 252a 723f b5a4 a8be 9852 c0be 8b8f 1640
00000100: 7526 183f a162 3e3f 43a6 b6bf af0c d83e
00000110: 92f0 113f b0fb e9bf bdd5 e63f e75f 2ebf
00000120: 38b9 f83e 2ebd 37be fa88 9abe d545 d73f
00000130: 75b7 7c3f a9f1 633f a975 033f f42f c13f
00000140: 6250 d93e 1e9e 15bf 9c2e c7be e084 89bf
00000150: c1e5 64bf 47ad 2ebf ab30 c73e 8ab2 c8be
00000160: c657 263f 4cab 953f c663 6e3f afc6 0f40
00000170: 6efa 0d3e b878 df3f 3fcb 98bf 38c3 a73e
00000180: b5bd 283f 22cf ba3d ca2d c43f b038 d93f
00000190: 6bc2 873e 6262 853f db06 82bf feb9 72bf
000001a0: 6723 7fbe da6b 2140 4742 c63e ac79 ccbf
000001b0: 332c e23f 608e 853f 3a35 483f 0712 e63f
000001c0: 86d0 e4bf d88e f4be 2fb3 b03d 4566 3f3f
000001d0: eeae e13f a53d 1040 6741 783f 0efe e0bf
000001e0: 6372 453f 358e aa3f daaa dcbf 0e5f 5fbd
000001f0: 2dec 193f 8d90 ff3e 5792 30bf 8226 4d3f
00000200: bfa9 463f 8fe6 4fbf a7c0 7d3f 1428 f5bf
00000210: e503 373f 5021 953f e441 953f 1e8b 1bbf
00000220: d227 a73e 758b 053f c659 b83f df4e 543f
00000230: 7ce3 403f 6d62 d0bf 2a88 803f ba57 5dbf
00000240: d269 98bf 891f 64bf 7c9c dc3f 086b 863f
00000250: 9407 f23e 36ca 2a3f bbec 313f 7bdb 39be
00000260: 7855 9abf 2770 a83d d856 10c0 9050 8cbf
00000270: 297e f33f f018 a9bf 96d9 a83e 1e53 3cbf
00000280: 1ede 493f d97f 0540 11ad 70bf 198a 5dbf
00000290: 2e8f 0040 6514 d4bf ec0c 87bf 2711 6dbf
000002a0: ffc4 583f 4ff0 873f d2a6 8e3f 1d95 903f
000002b0: 49c0 94bf cfdd 9cbf a54e 1240 055c 0d3f
000002c0: c619 723f 67b6 45be 38b7 473f 760c 8ebe

fourier.amplitude_an f4 [1, 3, 60]
-0.46793592 5.369135 1.165057 5.3461294 -0.5902969 -0.4219632 -0.43024203 -0.5293968
-0.644217 0.1750862 -0.22128236 0.35072437 -0.7801713 3.4915304 4.614858 3.829984
-0.14203507 -0.343385 -0.3066626 -0.27291837 -0.6566443 -0.17646968 5.427373 -0.46596777
-0.44154713 -0.5787793 1.3258277 4.594213 -0.5609729 -0.42952433 -0.6208987 3.953078
3.3716035 1.5140775 -0.23248366 3.8363702 0.38133097 5.7266064 0.89736795 7.278669
-0.5250551 -0.46214354 -0.9419065 -0.93766093 0.3786119 8.835872 4.544325 -0.45176372
-0.018333703 -1.0065969 -0.5779887 -0.40225294 -0.30222842 -0.49519306 2.571772 -0.4705088
-0.25098082 4.9507527 -0.5241708 1.2012786 0.29974523 -0.7711066 -1.9586359 -6.9192786
-0.2523957 0.12340961 -0.27494213 -0.5013043 -0.2977902 -0.5237963 -7.177378e-05 -0.120717995
-0.13840552 -2.6684968 -4.044682 -4.816284 -0.20714258 -0.04054381 -0.17637399 0.21053657
-0.61814326 0.042605717 -3.2544782 0.16421594 0.9211148 -0.011313289 -1.9100685 -3.1730764
-0.4308767 0.022095408 0.09042172 -4.323444 -2.8751676 -2.6112216 1.0275209 -2.8988647
-0.122737296 -3.7773805 -1.4299718 -8.794365 -0.4883141 1.0816306 2.0525885 1.582207
0.1411217 -8.553012 -3.921656 0.27154994 -0.3462501 2.0166373 0.5876169 0.27598202
0.4733978 -0.24326046 -1.5257305 -0.28043184 0.063919865 -6.317432 0.08521464 -2.0051699
-0.026619831 -0.0076884315 -0.13419574 -0.074083105 0.24512313 0.12782708 -0.16232519 0.07443464
0.07626828 0.036619965 0.09263266 -0.052372903 -0.017597731 -0.043262806 -0.08016262 0.1507754
-0.078342214 -0.26764756 0.105299376 -0.030677978 0.0036248565 -0.023866888 -0.16030604 0.019874869
-0.19182907 -0.049160447 0.012530967 0.007189275 -0.09157955 -0.01768445 0.047999874 0.05310266
-0.027983746 0.11812385 0.050245356 0.055719327 0.07993802 0.08484904 0.180733 0.14489679
-0.26668438 -0.07191595 -0.26885933 0.10829591 0.07278907 -0.04415333 -0.28728563 -0.0015709935
0.03402481 0.08014794 0.12373505 0.014910405 -0.10770806 -0.033756323 -0.0404712 0.068528526
-0.13315077 -0.059104092 -0.008781351 0.1411093
00000000: 4c95 efbe f4cf ab40 9620 953f 7e13 ab40
00000010: b31d 17bf 900b d8be af48 dcbe 8c86 07bf
00000020: 68eb 24bf cc49 333e d897 62be 2592 b33e
00000030: 4eb9 47bf 3c75 5f40 ebac 9340 751e 7540
00000040: a471 11be 29d0 afbe e102 9dbe f5bb 8bbe
00000050: d719 28bf 78b4 34be 0aad ad40 5493 eebe
00000060: 7712 e2be e12a 14bf b9b4 a93f cb03 9340
00000070: ec9b 0fbf 9dea dbbe 38f3 1ebf 3bff 7c40
00000080: 5ac8 5740 4bcd c13f 3210 6ebe 1787 7540
00000090: d03d c33e 5c40 b740 e8b9 653f dbea e840
000000a0: 036a 06bf 149e ecbe c920 71bf 8c0a 70bf
000000b0: 6bd9 c13e bb5f 0d41 1c6b 9140 934d e7be
000000c0: 9030 96bc 2bd8 80bf 11f7 13bf 19f4 cdbe
000000d0: afbd 9abe f289 fdbe ea97 2440 88e6 f0be
000000e0: 8f80 80be 916c 9e40 0f30 06bf 7fc3 993f
000000f0: 3578 993e 3e67 45bf 95b4 fabf bb6a ddc0
00000100: 023a 81be 2dbe fc3d 37c5 8cbe 7b55 00bf
00000110: f577 98be 8417 06bf 4185 96b8 ff3a f7bd
00000120: 2dba 0dbe a7c8 2ac0 096e 81c0 001f 9ac0
00000130: 2f1d 54be 4411 26bd 629b 34be e696 573e
00000140: a33e 1ebf 5583 2e3d 5f49 50c0 3928 283e
00000150: 2ece 6b3f 605b 39bc 207d f4bf af13 4bc0
00000160: df9b dcbe 6e01 b53c 062f b93d a759 8ac0
00000170: bf02 38c0 411e 27c0 ce85 833f 0087 39c0
00000180: b15d fbbd 9ac0 71c0 5109 b7bf b8b5 0cc1
00000190: 4e04 fabe df72 8a3f 9c5d 0340 c285 ca3f
000001a0: 3582 103e 23d9 08c1 69fc 7ac0 9808 8b3e
000001b0: b147 b1be 9610 0140 106e 163f 844d 8d3e
000001c0: 3261 f23e 4519 79be 234b c3bf c394 8fbe
000001d0: 6be8 823d 6728 cac0 0385 ae3d b454 00c0
000001e0: d511 dabc 3def fbbb 9c6a 09be e2b8 97bd
000001f0: 8f01 7b3e 1ae5 023e 9338 26be 3071 983d
00000200: 8b32 9c3d d1fe 153d 31b6 bd3d f884 56bd
00000210: 1e29 90bc 5734 31bd 4d2c a4bd de64 1a3e
00000220: e271 a0bd 1a09 89be 33a7 d73d 6250 fbbc
00000230: 008f 6d3b 7e84 c3bc 4427 24be 9fd0 a23c
00000240: d76e 44be 775c 49bd af4e 4d3c 0394 eb3b
00000250: 0f8e bbbd fbde 90bc 849b 443d 2d82 593d
00000260: 2b3e e5bc ebea f13d 13ce 4d3d f339 643d
00000270: 8bb6 a33d 55c5 ad3d 1212 393e d35f 143e
00000280: db8a 88be ab48 93bd eea7 89be 3fca dd3d
00000290: 7012 953d 1fda 34bd 1a17 93be cbe9 cdba
000002a0: 995d 0b3d 9a24 a43d cd68 fd3d c54a 743c
000002b0: 0b96 dcbd 1244 0abd 21c5 25bd af58 8c3d
000002c0: ad58 08be 2217 72bd a8df 0fbc f57e 103e

fourier.amplitude_bn f4 [1, 3, 60]
1.8098865 0.016058944 -1.5704277 3.8688602 0.9233259 0.46296114 -2.6292987 1.3057005
1.4529376 -4.24291 3.7363243 -2.5451112 1.0789301 0.4829892 -3.6454864 3.0298812
0.736516 1.035349 2.036091 3.0712008 1.2682009 -2.1764486 -0.7556998 -2.3241088
-1.3544438 -1.7282852 1.9001545 -1.6345965 0.40837914 2.5000982 1.8668249 3.9959059
-0.30354634 3.7217171 -2.8112566 1.7304908 2.5617712 5.163965 3.6419091 3.4490314
1.5081264 2.4298086 -0.32252765 -0.2345143 -8.096649 -2.7471805 2.1870408 -2.947175
3.7147684 0.43834388 1.6844941 3.443488 -3.4271412 -1.8721515 0.62207806 0.91129607
3.2272735 3.7434976 1.9564573 -3.9283285 -2.3972905 -0.85970336 0.8722138 -2.6576345
-3.0450265 -2.9681025 2.9317975 -2.6136577 -2.8219817 3.3329532 -3.509962 1.5703686
-2.7433584 0.21284361 0.5067435 -1.6698512 -3.265836 -2.8205106 -1.938235 -2.9537153
-2.7784748 1.9244713 0.35352096 2.2976425 2.2979324 2.5083568 -1.1789973 0.7641534
-3.2612164 -2.5485559 -2.7724886 -1.7805663 0.07584059 -2.2743058 3.0688334 -0.32427824
-1.5661688 -0.8013845 -1.9264041 -2.944948 -1.3840488 -2.809762 2.3261533 1.8783498
5.024355 1.3968599 -0.77474606 3.162144 -3.0154796 -2.5058215 -2.1857202 -3.6233094
3.6486285 2.1960025 -2.732129 -3.0770366 -3.2635093 -2.574247 -2.33931 2.7596624
0.018547846 -0.06256776 0.059871476 0.15069701 -0.0075733424 -0.14399326 0.09460359 0.004857831
-0.008079385 -0.260809 -0.100382976 0.02765737 -0.021359673 0.1054339 0.049957346 0.012871946
-0.01804821 0.012384365 0.035822377 0.07753153 0.025504306 0.21207014 0.03812922 0.088456154
0.071812205 0.0008538323 0.03152859 0.045839515 0.17945771 -0.101401724 0.099256516 -0.109893136
-0.18552902 -0.042830985 -0.113443926 0.0068144933 -0.03732491 -0.02162829 -0.059078705 -0.05945235
-0.07820503 0.13557158 -0.09598058 -0.07986017 -0.0501056 0.057093736 -0.027720705 -0.060082085
-0.03459334 0.07717789 -0.09746238 0.056772407 0.09104694 -0.08536162 0.048946433 0.07739859
0.13127322 0.18329969 -0.112668335 -0.023137309
00000000: 5caa e73f 0c8e 833c c603 c9bf 689b 7740
00000010: 165f 6c3f 3e09 ed3e 6e46 28c0 3221 a73f
00000020: dcf9 b93f ebc5 87c0 f01f 6f40 1ae3 22c0
00000030: 621a 8a3f 5c4a f73e a64f 69c0 93e9 4140
00000040: 508c 3c3f 5186 843f 514f 0240 8e8e 4440
00000050: 6854 a23f ef4a 0bc0 8b75 41bf 33be 14c0
00000060: 6a5e adbf 7338 ddbf 4338 f33f 753a d1bf
00000070: 1217 d13e 9c01 2040 1ef4 ee3f ecbc 7f40
00000080: 6d6a 9bbe 9d30 6e40 a1eb 33c0 b980 dd3f
00000090: 0ff4 2340 343f a540 0a15 6940 eebc 5c40
000000a0: 490a c13f fc81 1b40 5822 a5be 8424 70be
000000b0: e08b 01c1 ced1 2fc0 7af8 0b40 849e 3cc0
000000c0: c4be 6d40 9c6e e03e 819d d73f 1b62 5c40
000000d0: 4856 5bc0 a9a2 efbf 8240 1f3f b34a 693f
000000e0: a68b 4e40 7795 6f40 316d fa3f bc69 7bc0
000000f0: 356d 19c0 8515 5cbf 6749 5f3f af16 2ac0
00000100: b7e1 42c0 64f5 3dc0 92a2 3b40 2b46 27c0
00000110: 599b 34c0 1b4f 5540 38a3 60c0 d701 c93f
00000120: 2f93 2fc0 adf3 593e f1b9 013f afbd d5bf
00000130: 7503 51c0 3f83 34c0 1618 f8bf ac09 3dc0
00000140: 88d2 31c0 1355 f63f b300 b53e 930c 1340
00000150: 5311 1340 eb88 2040 62e9 96bf 8f9f 433f
00000160: c5b7 50c0 8a1b 23c0 7470 31c0 99e9 e3bf
00000170: 5052 9b3d 3a8e 11c0 c467 4440 cc07 a6be
00000180: 3878 c8bf 8927 4dbf 6994 f6bf 077a 3cc0
00000190: 8328 b1bf 24d3 33c0 b2df 1440 c46d f03f
000001a0: 84c7 a040 4ecc b23f c255 46bf 9160 4a40
000001b0: 9efd 40c0 615f 20c0 d7e2 0bc0 4de4 67c0
000001c0: 2183 6940 4e8b 0c40 34db 2ec0 2bee 44c0
000001d0: 56dd 50c0 76c0 24c0 41b7 15c0 4f9e 3040
000001e0: a7f1 973c 8723 80bd cb3b 753d 5150 1a3e
000001f0: cd29 f8bb f872 13be 87bf c13d 712e 9f3b
00000200: 665f 04bc c288 85be 9795 cdbd b591 e23c
00000210: 7bfa aebc bbed d73d 13a0 4c3d dbe4 523c
00000220: d7d9 93bc cbe7 4a3c 7cba 123d dac8 9e3d
00000230: 68ee d03c ea28 593e 632d 1c3d 8028 b53d
00000240: 4712 933d b7d3 5f3a 1f24 013d 37c2 3b3d
00000250: c3c3 373e b5ab cfbd 0047 cb3d a70f e1bd
00000260: 52fb 3dbe 8b6f 2fbd 4a55 e8bd 1d4c df3b
00000270: 01e2 18bd d02d b1bc 83fc 71bd 4f84 73bd
00000280: f529 a0bd 47d3 0a3e 7791 c4bd bb8d a3bd
00000290: 883b 4dbd 1fdb 693d 8816 e3bc a218 76bd
000002a0: bfb1 0dbd 710f 9e3d 5b9a c7bd 2f8a 683d
000002b0: d176 ba3d 13d2 aebd 0e7c 483d 2783 9e3d
000002c0: 7d6c 063e eab2 3b3e a8be e6bd 748a bdbc

fourier.bias f4 [1, 3]
0.5055384 0.5162088 -0.6948343
00000000: f76a 013f 4326 043f a9e0 31bf

linear.weight f4 [7, 3]
-4.072183 1.192224 0.37475553 -2.4216545 0.8106369 0.031272247 -0.7592489 0.22700897
-0.43500435 0.45342544 -0.35669613 0.37628073 1.2272692 -0.9422375 0.4845321 1.5455816
-1.3570298 -0.38833427 1.6518109 -1.9329512 0.4645328
00000000: 534f 82c0 cc9a 983f f5df bf3e 63fc 1ac0
00000010: e685 4f3f 5417 003d 235e 42bf 0a75 683e
00000020: e4b8 debe 6127 e83e e0a0 b6be dea7 c03e
00000030: 2817 9d3f 7a36 71bf 9714 f83e 9ed5 c53f
00000040: 27b3 adbf c0d3 c6be 8a6e d33f f26a f7bf
00000050: 3ed7 ed3e

linear.bias f4 [7]
-0.13847907 1.6223159 0.6521112 -0.3558408 -0.3241152 -0.693345 1.070979
00000000: 75cd 0dbe 0ca8 cf3f c2f0 263f c430 b6be
00000010: 6df2 a5be 0f7f 31bf d715 893f
