model_lib/resnet_R_model.pth (torch, 19394 bytes, 19 tensors)

model.0.fc1.weight f4 [32, 5]
0	0x3de302e7	0.11084538
1	0xbdc35e36	-0.09539454
2	0xbebf52e3	-0.37367925
3	0x3ecd339e	0.40078443
4	0xbdb8d9ba	-0.09025903
5	0x3c0f9e11	0.008765713
6	0xbca285ab	-0.019839128
7	0xbe021147	-0.12701903
8	0x3d868e18	0.06570071
9	0x3c2260cc	0.0099107735
10	0x3c93f861	0.018062772
11	0xbdb00930	-0.085955024
12	0xbedc6feb	-0.43054137
13	0xbef5663e	-0.47929567
14	0xbdad8494	-0.08472553
15	0xbe252a4a	-0.16129413
16	0x3e572b67	0.2101265
17	0xbe13ddb3	-0.1444004
18	0x3e4bf648	0.19918168
19	0x3caa47cb	0.020786187
20	0x3db7dcae	0.08977638
21	0x3e199710	0.14999032
22	0xbe9a90e0	-0.30188656
23	0x3dda5ac1	0.10661841
24	0xbece9e3a	-0.40355092
25	0xbde1e8b8	-0.11030716
26	0x3daf0c33	0.08547249
27	0xbea83cc3	-0.32858858
28	0x3e87395c	0.2641095
29	0x3d2c4084	0.042053714
30	0xbd33ed77	-0.043927636
31	0x3e549136	0.20758519
32	0x3e1bad0f	0.15202735
33	0x3e800f53	0.2501169
34	0x3dc498b3	0.095994376
35	0xbcbbe582	-0.022936586
36	0x3c52f9e9	0.012876966
37	0xbec869a1	-0.39143088
38	0x3e38f06a	0.1806046
39	0x3d0952dc	0.033526286
40	0xbec8a18e	-0.39185756
41	0x3cfb8f99	0.030708121
42	0x3db724ea	0.08942588
43	0xbe12fa4d	-0.14353295
44	0xbcce947b	-0.025217285
45	0xbc5f1251	-0.013615207
46	0xbc451312	-0.0120284725
47	0x3ec7e524	0.39042008
48	0xbe9b6b0b	-0.30355105
49	0xbd1608b3	-0.03662939
50	0xbebf7c21	-0.3739939
51	0x3e512826	0.20425472
52	0x3e881030	0.2657485
53	0xbd44dc00	-0.04806137
54	0x3d22aa12	0.039712973
55	0xba25dea9	-0.00063274294
56	0x3c71911e	0.014744071
57	0xbe9ab023	-0.30212507
58	0x3e3089a9	0.17240013
59	0xbe1c593f	-0.1526842
60	0xbc60faa3	-0.013731631
61	0xbd28197d	-0.041039933
62	0xbeaf5598	-0.3424499
63	0xbe2578f3	-0.1615942
64	0xbd8ccd9e	-0.06875156
65	0x3dc06e7e	0.09396075
66	0x3eb5baaf	0.3549399
67	0x3ec7b62e	0.3900618
68	0xbcdda1b4	-0.027054645
69	0xbe8ba61c	-0.2727517
70	0x3e009f03	0.12560658
71	0x3e0fc8ef	0.14041494
72	0xbccd920b	-0.025094053
73	0xbddbdd6d	-0.10735593
74	0xbe9b4227	-0.30323908
75	0x3d3d9054	0.04628022
76	0xbd5eb06f	-0.05436748
77	0xbe40e18e	-0.18836042
78	0xbf06d197	-0.5266356
79	0xbced6a62	-0.028981391
80	0x3e307380	0.1723156
81	0xbbdb2870	-0.00668817
82	0x3e095370	0.13410735
83	0x3e1a7756	0.15084586
84	0x3c34479b	0.0110034
85	0xbb0f19a1	-0.0021835344
86	0xbca4285e	-0.02003878
87	0xbdd31beb	-0.10308059
88	0x3d897ae8	0.06712896
89	0xbb574656	-0.003284832
90	0xbdd545a3	-0.10413673
91	0xbc5116c4	-0.012761775
92	0xbe6411b7	-0.22272383
93	0xbe85cadf	-0.2613134
94	0xbe810abc	-0.25203502
95	0xbce1f958	-0.027584717
96	0xbe66c348	-0.22535431
97	0x3e3ec762	0.18630746
98	0xbe31bfba	-0.17358294
99	0xbe970fad	-0.29504147
100	0x3e0a951a	0.1353344
101	0xbd974642	-0.073864475
102	0x3e802fcf	0.25036475
103	0xbe59cba3	-0.21269087
104	0xbee9b80a	-0.45648223
105	0xbe504b1f	-0.20341156
106	0x3e04d8ba	0.129733
107	0xbebd0342	-0.36916548
108	0x3e447c78	0.19188106
109	0x3db13470	0.0865258
110	0x3df99e3b	0.12188383
111	0xbdba383a	-0.090927556
112	0x3e236707	0.1595727
113	0x3d7148cf	0.058907326
114	0xbd1be8de	-0.038063876
115	0x3ebf6497	0.3738143
116	0xbe4fdfd8	-0.20300233
117	0xbd0cff34	-0.03442307
118	0xbe1467fa	-0.14492789
119	0xbdddf1d5	-0.108371414
120	0xbe038449	-0.12843432
121	0x3d32b432	0.04362888
122	0xbe870e6d	-0.26378193
123	0x3e01c078	0.12671077
124	0x3cf7a2a8	0.030228928
125	0x3e8ce00e	0.2751469
126	0xbe6f8d90	-0.23393846
127	0xbb3e72c5	-0.0029060107
128	0x3eb67e80	0.35643387
129	0x3ce29bf0	0.027662247
130	0xbec77da3	-0.3896304
131	0x3d9ffe40	0.07812166
132	0x3e983b53	0.2973276
133	0xbea440c9	-0.32080677
134	0xbd012cd7	-0.031536903
135	0xbd9c2068	-0.076233685
136	0x3cee3293	0.02907685
137	0x3d4526ea	0.048132814
138	0x3e861144	0.26185048
139	0x3da6abc7	0.08138233
140	0x3e15f0c0	0.1464262
141	0xbe0a3e4b	-0.13500325
142	0x3e0affff	0.13574217
143	0xbe935613	-0.28776607
144	0xbde39de3	-0.11114099
145	0xbdb92653	-0.09040513
146	0x3e12d163	0.14337687
147	0x3d90ad83	0.07064345
148	0xbd3165f0	-0.043310106
149	0xbd0594d4	-0.032612637
150	0xbe1afe0c	-0.15135974
151	0x3d129270	0.035784185
152	0xbe252350	-0.16126752
153	0x3c1327fc	0.008981701
154	0x3d3fc098	0.04681453
155	0x3e845190	0.25843477
156	0x3d73ebe3	0.05955113
157	0xbd2afcb8	-0.041744918
158	0x3ed57f69	0.4169877
159	0x3d199930	0.037499607

model.0.fc1.bias f4 [32]
0	0xbde2427c	-0.11047837
1	0xbdac4862	-0.084122434
2	0xbf0f37a9	-0.55944306
3	0xbe803435	-0.2503983
4	0xbee24708	-0.44194818
5	0xbd7e91a1	-0.0621506
6	0xbf328c3c	-0.6974523
7	0xbe695c90	-0.22789216
8	0xbeaf43af	-0.34231326
9	0xbd81a1bf	-0.06329679
10	0xbec23f8f	-0.37939116
11	0xbe421fe4	-0.18957478
12	0xbe9eea41	-0.31038097
13	0xbe813c58	-0.2524135
14	0xbeaaeffe	-0.33386225
15	0xbf065ded	-0.5248707
16	0xbea81f5e	-0.3283643
17	0xbdbc0e4f	-0.09182417
18	0xbee269c1	-0.4422131
19	0xbef5e94a	-0.48029548
20	0xbe74418a	-0.23853126
21	0xbeb17811	-0.34661916
22	0xbdb34020	-0.08752465
23	0xbeb2f682	-0.34953696
24	0xbe03b431	-0.12861706
25	0xbf07c332	-0.5303222
26	0xbef811ec	-0.48451173
27	0xbeedffc9	-0.4648421
28	0xbe5e15d0	-0.21688008
29	0xbe75ed01	-0.24016191
30	0xbe845331	-0.2584472
31	0xbf438d6d	-0.76387674

model.0.fc2.weight f4 [32, 32]
0	0xbb70b9a3	-0.0036731742
1	0x3e222fc7	0.15838538
2	0x3ecda14a	0.40162116
3	0x3d54b974	0.051934674
4	0xbd604132	-0.054749675
5	0xbcb0732d	-0.021539295
6	0xbcf1422e	-0.029450502
7	0x3ef53476	0.47891587
8	0xbe503012	-0.20330837
9	0x3e9c76ce	0.3055939
10	0xbe7887c8	-0.24270546
11	0x3d251ec3	0.04031254
12	0x3e195d6f	0.14977048
13	0xbc17c9bc	-0.009264406
14	0x3da94eb2	0.08266963
15	0xbe4455fd	-0.19173427
16	0x3bc0e865	0.0058870786
17	0x3d78ada8	0.060712487
18	0x3dae2a7d	0.08504198
19	0xbc019193	-0.007908243
20	0x3dc7c855	0.09755007
21	0x3e823c49	0.2543662
22	0x3c374c57	0.011187634
23	0x3db7efd4	0.089812905
24	0x3da97ac3	0.08275368
25	0x3c3e1857	0.011602483
26	0x3d45521b	0.048174005
27	0xbab386cc	-0.0013696789
28	0x3e1b78c2	0.15182784
29	0xbe2c87e8	-0.16848719
30	0xbe837f02	-0.25682837
31	0x3cf0615c	0.0293433
32	0xbe40132c	-0.18757313
33	0xbe60577f	-0.21908377
34	0xbd85b9ea	-0.06529601
35	0xbe814e79	-0.25255182
36	0xbe9b3b9f	-0.30318925
37	0xbe3862e3	-0.18006472
38	0xbd874f68	-0.066069424
39	0xbdc00a1d	-0.09376929
40	0xbd9bc333	-0.07605591
41	0xbd7d1ebc	-0.06179689
42	0xbebc71ae	-0.3680548
43	0xbee91327	-0.45522425
44	0xbec3247c	-0.38113773
45	0xbe0b39a6	-0.1359621
46	0xbdec7516	-0.1154577
47	0xbfb19772	-1.3874342
48	0xbdfae1b7	-0.12250083
49	0x3ba51d32	0.0050388807
50	0x3e8e0019	0.2773445
51	0x3b5d2cde	0.0033748667
52	0xbe8409ef	-0.2578883
53	0xbe6d28b1	-0.23160054
54	0xbd8c297b	-0.06843849
55	0xbddef344	-0.10886243
56	0xbde8d313	-0.11368384
57	0xbce903c4	-0.028444178
58	0xbd6c34ce	-0.057667546
59	0xbd67e06a	-0.056610502
60	0xbe540063	-0.20703273
61	0xbe0b0c1e	-0.13578841
62	0x3e522e03	0.20525365
63	0xbeb32806	-0.34991473
64	0xbd893396	-0.06699292
65	0x3db495b7	0.08817618
66	0x3dad3397	0.084571056
67	0x3dc1b0c6	0.09457545
68	0x3e12df53	0.14343004
69	0x3dc554cc	0.09635314
70	0xbd0a5077	-0.033768144
71	0x3e9457fd	0.2897338
72	0xbbba7dac	-0.005691251
73	0xbdaffb8a	-0.08592899
74	0x3c7f866a	0.015596012
75	0xbcd360c3	-0.025802976
76	0x3e7a06ec	0.24416703
77	0xbd87c279	-0.066288896
78	0x3b904363	0.0044025644
79	0x3e658c81	0.22416879
80	0x3de5c8c2	0.11219932
81	0x3d9a7292	0.07541384
82	0xbe62ceee	-0.2214925
83	0xbde52e03	-0.11190417
84	0xbdcec753	-0.10096612
85	0xbd501012	-0.050796576
86	0x3d023a8e	0.031794123
87	0x3d1d142a	0.038349308
88	0xbd1d2b12	-0.038371153
89	0xbe224da4	-0.1584993
90	0x3fdb5758	1.713603
91	0xbc9ec0ea	-0.019379098
92	0xbd550dd1	-0.05201513
93	0x3e2939cf	0.16525958
94	0x3cb3386a	0.021877486
95	0x3dd73a23	0.105091356
96	0x3e3671f0	0.17816901
97	0x3e95b556	0.2923991
98	0xbe9681e5	-0.29395977
99	0xbe21b4ad	-0.15791579
100	0x3d23f270	0.04002613
101	0xbf7c1eba	-0.98484385
102	0x3d5fedf4	0.05467029
103	0x3e85b066	0.26111144
104	0xbe29507c	-0.16534609
105	0xbd20852b	-0.0391895
106	0xbb26369a	-0.0025362135
107	0x3b8b15b8	0.0042445324
108	0xbebd42b2	-0.36964947
109	0x3bea6bbc	0.007153956
110	0x3e9f209d	0.3107957
111	0x3ec03092	0.37537056
112	0xbd12ae59	-0.035810802
113	0x3e65e419	0.22450294
114	0xbef00b32	-0.4688354
115	0xbe8695d3	-0.26286182
116	0xbde0b931	-0.109728225
117	0xbe63580e	-0.22201559
118	0x3dbb913c	0.09158561
119	0x3ebc97f7	0.3683469
120	0xbe5b7e57	-0.21434914
121	0xbcf90dfe	-0.03040218
122	0xbed03586	-0.40665835
123	0xbe30ce7f	-0.17266272
124	0x3d6efc62	0.05834616
125	0xbe1e9846	-0.15487775
126	0xbde0dd2a	-0.10979684
127	0x3dc8fbea	0.09813674
128	0xbd2a3bb8	-0.04156086
129	0x3e2ef058	0.17083871
130	0x3e5a4987	0.21317111
131	0xbd898ca0	-0.06716275
132	0x3d718c29	0.058971558
133	0x3d26757a	0.040639378
134	0x3e334dc1	0.1751013
135	0x3d793c41	0.06084848
136	0xbe98f001	-0.29870608
137	0xbdc99c0e	-0.09844218
138	0x3e15f313	0.14643507
139	0x3bba5acc	0.0056870934
140	0x3d18cff6	0.037307702
141	0x3d034fbe	0.03205847
142	0x3e54503b	0.2073373
143	0xbee289f9	-0.4424589
144	0xbdb8d44f	-0.0902487
145	0xbd96945f	-0.07352518
146	0x3eb0e085	0.34546295
147	0xbdd4aff8	-0.10385126
148	0xbd20f6da	-0.039297916
149	0xbe920eba	-0.2852686
150	0xbb0510dd	-0.002030424
151	0xbf637459	-0.8884941
152	0xbdf53d99	-0.119746394
153	0x3d0bb153	0.034104656
154	0xbf71896a	-0.943503
155	0xbded6e36	-0.11593287
156	0x3c37dbb6	0.011221817
157	0x3df2a2ce	0.11847459
158	0xbc8a3535	-0.016871074
159	0xbd7baac9	-0.06144217
160	0x3c770222	0.015076192
161	0xbe8bfb32	-0.27340084
162	0xbe931ccf	-0.28732917
163	0x3e3d5d24	0.18492562
164	0x3d543e66	0.05181732
165	0xbef6f499	-0.48233488
166	0xbf4df3e3	-0.80450267
167	0xbf0a80b0	-0.5410261
168	0x3bd273a1	0.0064224754
169	0x3ce3d64e	0.02781215
170	0x3d381a8c	0.044947192
171	0xbf26e025	-0.6518577
172	0xbed45ddc	-0.4147786
173	0xbe955561	-0.291667
174	0x3e0d9f1d	0.13830228
175	0x3d74e0af	0.059784587
176	0xbf129320	-0.57255745
177	0x3dbf121d	0.09329627
178	0xbdb5cf4c	-0.08877429
179	0xbf53196d	-0.8246067
180	0xbf770229	-0.9648767
181	0xbda5ff4a	-0.08105333
182	0xbe19411f	-0.14966248
183	0xbeb515f8	-0.35368323
184	0xbea83b76	-0.32857865
185	0xbef3e479	-0.47635248
186	0xbe8dbf80	-0.27685165
187	0xbee45bfc	-0.44601429
188	0xbeafc22d	-0.34327832
189	0xbdbfa39e	-0.093573794
190	0xbe2eb94d	-0.17062874
191	0x3e6f29fe	0.23355862
192	0xbf217aab	-0.630778
193	0xbe285ef1	-0.16442467
194	0x3f870a9b	1.0550112
195	0xbc8445c2	-0.016146544
196	0x3d50af1d	0.05094825
197	0xbe398d61	-0.18120338
198	0xbdde8cb6	-0.10866682
199	0xbf1867e1	-0.59533507
200	0xbf0f387f	-0.5594558
201	0xbeb02a16	-0.3440711
202	0xbe7ec681	-0.2488041
203	0xbf0157aa	-0.5052439
204	0xbee969d3	-0.4558855
205	0xbf24c18c	-0.6435783
206	0xbeaa4802	-0.33258063
207	0xbe275b1f	-0.16343354
208	0xbe4c046d	-0.19923563
209	0xbda1360f	-0.07871639
210	0x3e049429	0.12947144
211	0xbead7fe2	-0.3388663
212	0x3e9165a9	0.28397873
213	0x3e270267	0.1630951
214	0xbf4546b6	-0.7706102
215	0xbe0ba138	-0.13635719
216	0xbe9b4090	-0.30322695
217	0x3e0c9daf	0.13732027
218	0xbe82cb96	-0.2554595
219	0xbdec4eec	-0.11538491
220	0x3eb3776a	0.35052043
221	0xbe3099ef	-0.17246221
222	0xbe920d4d	-0.28525773
223	0xbdaf66be	-0.085645184
224	0x3f1a6223	0.60305995
225	0x3e3a1cea	0.18175092
226	0xbee76c0d	-0.45199624
227	0x3d344ab1	0.044016544
228	0xbe6ebb45	-0.23313625
229	0xbe8d674a	-0.27617866
230	0xbe3d4b6e	-0.18485805
231	0xbecb5a06	-0.3971712
232	0x3eac930d	0.3370594
233	0x3db56c1d	0.088585116
234	0x3cea7b18	0.028623149
235	0xbe12e4a5	-0.14345033
236	0x3dbe0fed	0.09280381
237	0x3e0834b7	0.13301359
238	0xbe8cda12	-0.27510124
239	0x3c9b5835	0.018962959
240	0xbe08622b	-0.13318698
241	0xbe4623d3	-0.19349603
242	0xbeb02965	-0.34406582
243	0xbf857af2	-1.0428145
244	0xbf9dee54	-1.2338357
245	0x3eb18cbf	0.34677693
246	0xbd2a78eb	-0.041619223
247	0xbdfdc948	-0.12391907
248	0xbe02c758	-0.12771356
249	0xbe9caf79	-0.30602625
250	0x3f8c2609	1.0949107
251	0xbe73cc3c	-0.23808378
252	0x3db7ac3f	0.089684
253	0xbdbd04ca	-0.09229429
254	0xbe271799	-0.16317596
255	0xbe298719	-0.16555442

model.0.fc2.bias f4 [32]
0	0xbeba4346	-0.3637945
1	0x3df63b4d	0.120230295
2	0x3acdbaba	0.0015695908
3	0x3daa2468	0.08307725
4	0xbc92beba	-0.017913211
5	0x3d9795d3	0.074016236
6	0xbd8fbf2c	-0.07018885
7	0xbe03b2e4	-0.1286121
8	0x3e66c3c9	0.22535624
9	0xbd897417	-0.067115955
10	0xbec31412	-0.3810125
11	0xbe15df11	-0.14635874
12	0x3d95c7c5	0.07313494
13	0xba8a0347	-0.0010529541
14	0xbe4ba190	-0.1988585
15	0xbe5eb383	-0.21748166
16	0x3c081fa2	0.008308323
17	0xbeb2c36e	-0.34914726
18	0xbdc72021	-0.09722925
19	0xbd0dce85	-0.03462078
20	0xbdaac360	-0.08338046
21	0xbe3c317e	-0.18378255
22	0xbd5c2561	-0.053746585
23	0xbdcec27c	-0.10095689
24	0x3d2636c6	0.04057958
25	0x3e927825	0.28607288
26	0xbdb3ab34	-0.08772889
27	0xbd10884d	-0.035286237
28	0xbd8f3548	-0.069925845
29	0xbda21626	-0.07914381
30	0xbb44254c	-0.0029929457
31	0xbde38bbc	-0.111106366

model.0.fc_residual.weight f4 [32, 5]
0	0x3e170b49	0.14750399
1	0xbe34a5a9	-0.1764132
2	0xbeb8c8e5	-0.3609077
3	0x3e671d82	0.2256985
4	0xbf40521f	-0.75125307
5	0xbe03bab0	-0.12864184
6	0xbea44238	-0.3208177
7	0x3d11c6fa	0.03559015
8	0xbde7e12d	-0.11322246
9	0xbf04df65	-0.51903373
10	0x3e6d29e0	0.23160505
11	0x3dd78e4a	0.10525186
12	0xbf65d06b	-0.89771146
13	0xbefe9beb	-0.4972833
14	0x3d17491a	0.03693495
15	0xbd461fba	-0.0483701
16	0xbecffecf	-0.4062409
17	0x3e244a38	0.16043937
18	0x3da9b381	0.08286191
19	0x3edeef09	0.43541744
20	0x3ed8cefe	0.42345423
21	0x3e8252b2	0.25453717
22	0x3efe5de3	0.49681005
23	0x3e8d5240	0.27601814
24	0x3e922bac	0.28548944
25	0xbd58d63a	-0.052938677
26	0xbe0a4372	-0.13502291
27	0x3ec7a477	0.38992664
28	0xbf1571d7	-0.5837683
29	0xbb9369a7	-0.0044986787
30	0xbe3eeb47	-0.18644439
31	0x3ed8b185	0.42322937
32	0x3e8b9357	0.2726085
33	0xbe9785d6	-0.29594296
34	0x3e1d1318	0.15339315
35	0xbe00d03c	-0.12579435
36	0xbe0fef7d	-0.14056201
37	0xbe3c2618	-0.18373907
38	0xbe84beb7	-0.25926754
39	0x3e36548a	0.17805687
40	0x3ebcd29c	0.36879432
41	0xbddfa6a4	-0.10920456
42	0x3eec1a38	0.46113753
43	0x3e3115cd	0.17293473
44	0xbe08d676	-0.1336306
45	0xbced9b89	-0.029004829
46	0x3d66b4b5	0.05632468
47	0xbf6f9ae0	-0.93595695
48	0xbde63526	-0.11240606
49	0x3e3d6cbe	0.18498513
50	0x3e1f76f9	0.15572728
51	0x3dbf3ec1	0.09338141
52	0xbf14a834	-0.5806916
53	0xbec29b34	-0.38009036
54	0x3d6ca339	0.05777285
55	0xbf10dc48	-0.5658612
56	0xbc99f42d	-0.01879319
57	0x3dbca765	0.092116155
58	0x3e86c90e	0.26325268
59	0x3bd8e6a1	0.00661929
60	0xbdeb96d4	-0.115033776
61	0x3dc72bf7	0.097251825
62	0xbd899c9c	-0.06719324
63	0xbea063e9	-0.31326225
64	0x3c69fd5a	0.014281595
65	0xbdc96c6a	-0.098351315
66	0x3e549cf0	0.20762992
67	0x3e4f7421	0.20259143
68	0x3eab35d8	0.33439517
69	0x3e7a3c69	0.24437107
70	0xbe365c8c	-0.17808741
71	0x3d9b47cc	0.075820535
72	0xbd71262e	-0.0588743
73	0x3e290628	0.16506255
74	0x3eab5113	0.33460292
75	0xbe2b11bb	-0.16705982
76	0xbe7497e3	-0.23886065
77	0xbf5bdf6e	-0.858878
78	0xbf11cd80	-0.56954193
79	0x3ce93db9	0.028471814
80	0xbe86682f	-0.2625136
81	0xbe2b3641	-0.16719915
82	0x3e6a9eef	0.22912191
83	0xbe28c091	-0.16479708
84	0x3e5d9547	0.21638976
85	0xbec5ba76	-0.3861882
86	0x3e62d8df	0.22153042
87	0xbe9e94c6	-0.3097288
88	0x3f1557ee	0.58337295
89	0xbdfd12d6	-0.12357108
90	0xbec5cded	-0.3863367
91	0x3e1ea2f7	0.15491854
92	0x3df1ec37	0.118126325
93	0x3b14cfff	0.0022706983
94	0x3e79ef1d	0.2440762
95	0xbe4aa65b	-0.19790022
96	0x3cdeb148	0.027184144
97	0xbd847928	-0.06468421
98	0xbf082ead	-0.5319622
99	0x3e99d649	0.300463
100	0xbe78cd56	-0.2429708
101	0xbe511ea5	-0.20421846
102	0xbcbe11a6	-0.023201775
103	0x3f0bb39a	0.54570925
104	0xbe07b957	-0.13254295
105	0x3e2ba591	0.16762377
106	0xbdcdb645	-0.10044531
107	0xbe196d19	-0.14983024
108	0xbe41dc4e	-0.18931696
109	0x3c11c422	0.008896859
110	0xbe40f14a	-0.18842044
111	0xbeb45485	-0.35220733
112	0xbe915155	-0.28382364
113	0x3ee05a66	0.4381897
114	0x3eec614f	0.4616799
115	0xbefd0583	-0.49418268
116	0xbd14ed43	-0.036359083
117	0xbe6919a0	-0.22763681
118	0xbeb9acce	-0.36264652
119	0xbd7eb6fc	-0.062186226
120	0x3e5e80b4	0.21728784
121	0xbdf8303b	-0.12118574
122	0xbf407442	-0.75177395
123	0xbf1eba6c	-0.6200321
124	0xbe5419f8	-0.20713031
125	0xbc57c2a3	-0.013168964
126	0xbd41ba9d	-0.04729711
127	0x3e4a51df	0.19757794
128	0x3e308e43	0.17241769
129	0xbdfad179	-0.12246985
130	0xba02be03	-0.00049874204
131	0xbecab652	-0.39592224
132	0xb97a50a7	-0.00023871903
133	0xbe7e6d5d	-0.24846406
134	0xbe351593	-0.17684011
135	0x3d709d4d	0.058743764
136	0x3e145aeb	0.14487807
137	0xbf000764	-0.5001128
138	0x3e37b8e8	0.1794163
139	0xbf1fbb01	-0.6239472
140	0x3e2129d2	0.1573861
141	0xbe7747ea	-0.24148527
142	0x3ef3836e	0.4756121
143	0xbf17e46f	-0.59332937
144	0xbe69d9a9	-0.22836937
145	0xbed7d282	-0.42152792
146	0x3d3a7bdc	0.045528278
147	0xbe7efe75	-0.24901755
148	0x3e4e127a	0.20124236
149	0xbedf28cd	-0.43585816
150	0x3e4ba958	0.19888818
151	0xbd8a55bb	-0.06754633
152	0x3e8c0462	0.27347094
153	0xbe7565db	-0.23964636
154	0x3e4d747b	0.20063965
155	0xbe838cc5	-0.25693336
156	0x3c707356	0.014675936
157	0xbf03e27f	-0.5151748
158	0x3e989a7b	0.2980536
159	0x3e8a3157	0.26990768

model.0.fc_residual.bias f4 [32]
0	0xbeeb4d30	-0.45957327
1	0xbe6cec99	-0.2313713
2	0x3e96087e	0.29303354
3	0xbeacbaf1	-0.33736375
4	0x3e90e70f	0.28301284
5	0xbe555608	-0.208336
6	0x3c2adc34	0.010428477
7	0xbe463f3c	-0.1936006
8	0x3e77266b	0.24135749
9	0xbe9dc9b5	-0.30817953
10	0x3e2b5633	0.16732101
11	0x3e5f0efd	0.21783061
12	0xbd0961fe	-0.03354072
13	0x3e009d2b	0.12559955
14	0x3e83c496	0.2573592
15	0xbd97d675	-0.07413951
16	0x3da93622	0.08262278
17	0xbe56a70c	-0.20962161
18	0xbf196c66	-0.5993103
19	0xbd146477	-0.036228623
20	0xbc9c4688	-0.0190766
21	0x3e21369a	0.15743485
22	0xbdfd5b92	-0.12370981
23	0xbec091d5	-0.3761126
24	0xbec83b0c	-0.3910755
25	0x3dc000ee	0.09375177
26	0xbebabd4a	-0.3647254
27	0xbe3bed0f	-0.1835215
28	0xbc5f87a3	-0.013643178
29	0xbecd1607	-0.40055868
30	0x3ece70dd	0.40320483
31	0xbca4b0a4	-0.02010376

model.1.fc1.weight f4 [16, 32]
0	0xbe88d9e2	-0.2672873
1	0xbe573eba	-0.21020022
2	0xbea4873e	-0.32134432
3	0xbdbd9d51	-0.09258521
4	0xbd87d503	-0.06632426
5	0x3e3e3495	0.18574746
6	0x3e4c427d	0.19947238
7	0xbe13409d	-0.14380117
8	0x3ad59488	0.0016294876
9	0xbea1424b	-0.3149589
10	0xbd97b4eb	-0.07407554
11	0xbe2b6a31	-0.16739728
12	0xbdc11d7f	-0.09429454
13	0xbedba5f2	-0.42900044
14	0xbe2e624c	-0.17029685
15	0xbeec2923	-0.46125135
16	0xbed09013	-0.4073492
17	0xbf707124	-0.9392264
18	0xbe32531a	-0.17414513
19	0xbe45fe4a	-0.19335285
20	0xbda15789	-0.07878024
21	0xbf00f314	-0.5037091
22	0xbecd781b	-0.40130696
23	0xbdb4c2f5	-0.088262476
24	0xbdf4c326	-0.11951284
25	0x3e0b5fac	0.13610715
26	0x3dd89579	0.10575385
27	0x3c0a0f72	0.008426534
28	0xbdf20ac1	-0.118184574
29	0xbe1c0e11	-0.15239741
30	0x3e95d8ef	0.2926707
31	0xbe0ecb3e	-0.13944718
32	0x3d40afad	0.047042537
33	0xbeb65613	-0.35612544
34	0xbe81c15e	-0.2534284
35	0x3d8db5c4	0.06919435
36	0x3d1bdd9d	0.038053144
37	0x3d9fcc8a	0.078026846
38	0x3e96fdcd	0.2949051
39	0x3eaee35e	0.34157842
40	0xbc199d6c	-0.009375911
41	0xbe62775e	-0.22115847
42	0x3e5aabef	0.2135465
43	0x3e27c120	0.16382265
44	0xbe76e294	-0.2410987
45	0xbec65804	-0.38739026
46	0x3e76e2f5	0.24110015
47	0xbd7c74a4	-0.061634675
48	0xbdce2c99	-0.100671
49	0xbeacebed	-0.33773747
50	0xbe0b565a	-0.1360716
51	0xbeb30315	-0.3496329
52	0xbe0f8c37	-0.14018331
53	0xbeccaf34	-0.3997742
54	0x3e38305f	0.17987202
55	0xbd6d0aed	-0.057871748
56	0x3e762737	0.24038397
57	0x3db44527	0.08802252
58	0xbdfb7653	-0.12278428
59	0xbe80402c	-0.2504896
60	0x3e7961ac	0.24353665
61	0x3e9729ae	0.29523987
62	0xbe3e8e7c	-0.18609041
63	0xbd2357f9	-0.03987882
64	0x3b21aea0	0.0024670735
65	0x3d395c9a	0.045254327
66	0x3d580664	0.05274047
67	0xbd202875	-0.039101083
68	0x3d71361d	0.058889497
69	0x3e30b8fb	0.17258064
70	0xbe08b217	-0.13349186
71	0xbd73b6a3	-0.059500348
72	0x3dbf8e44	0.09353307
73	0xbd466ec5	-0.04844548
74	0x3e3dca5d	0.18534227
75	0x3e07bfa7	0.13256703
76	0x3e8f3a50	0.27974176
77	0xbe964cea	-0.29355556
78	0xbb31878d	-0.0027088851
79	0x3dcbaeba	0.09945436
80	0x3c957591	0.018244537
81	0x3cf20eab	0.02954801
82	0xbeb7d0c7	-0.35901472
83	0x3d5088ab	0.050911587
84	0x3d8f6a9e	0.070027575
85	0x3d82b08c	0.0638133
86	0x3db25d75	0.08709232
87	0xbd4c4177	-0.04986712
88	0xbe1cf5c5	-0.15328129
89	0xbe06b703	-0.13155751
90	0x3d914650	0.07093489
91	0xbdad57cd	-0.08464012
92	0x3e07ae87	0.1325017
93	0x3da606d6	0.081067726
94	0xbeb9ac0f	-0.36264083
95	0xbd80b539	-0.062845655
96	0xbea44594	-0.32084334
97	0xbe73be05	-0.23802955
98	0x3da874ad	0.08225379
99	0x3e56dec1	0.20983411
100	0xbe5c8e9f	-0.2153878
101	0x3e98db8d	0.29855004
102	0xbd51558f	-0.051106986
103	0x3cdbf782	0.02685142
104	0xbee8a1d7	-0.45435974
105	0xbde92e78	-0.11385816
106	0x3e09e33e	0.13465592
107	0xbfbdd2a6	-1.482991
108	0xbda4f37b	-0.08054253
109	0xbf35fc92	-0.71088517
110	0xbcae36d8	-0.021266386
111	0x3e0a1ab0	0.13486743
112	0xbf2dccfd	-0.6789091
113	0x3ea7f79f	0.32806107
114	0x3d5f9320	0.05458367
115	0x3e4af6c6	0.19820699
116	0x3d83fa9e	0.06444286
117	0x3c71b62c	0.014752906
118	0xbcb72996	-0.022358697
119	0xbed9878f	-0.42486235
120	0xbea6e84e	-0.3259911
121	0xbe849349	-0.2589362
122	0x3c12a409	0.008950242
123	0x3e82a082	0.25513083
124	0xbeff3e3e	-0.49852175
125	0xbe6baf91	-0.23016192
126	0xbe9b94ae	-0.3038687
127	0xbf13b75e	-0.5770167
128	0xbf6b18dd	-0.91834813
129	0xbe0ef131	-0.13959195
130	0xbe1ddd36	-0.15416417
131	0x3d791510	0.060811102
132	0x3c6c15d2	0.014409499
133	0x3e197bd5	0.14988644
134	0x3e719edd	0.23595758
135	0xbe963c34	-0.29342806
136	0x3d7c6028	0.06161514
137	0xbda708d5	-0.081559815
138	0xbeb293bc	-0.34878337
139	0x3de89cfd	0.11358068
140	0x3e0752fe	0.13215253
141	0xbd391fe4	-0.04519643
142	0x3e03051d	0.1279492
143	0xbed954b7	-0.42447445
144	0xbed9ce5e	-0.42540258
145	0xbf633739	-0.8875614
146	0xbd6e6cfb	-0.0582094
147	0xbf058630	-0.5215788
148	0xbd841463	-0.06449201
149	0x3e8bada3	0.27280912
150	0xbeb523a7	-0.35378763
151	0x3c3a45fd	0.011369226
152	0xbedde7d5	-0.43340936
153	0xbd934ff5	-0.07192985
154	0xbec048d0	-0.37555552
155	0xbe551cc0	-0.20811749
156	0x3c085ac9	0.008322426
157	0x3ea77c84	0.32712185
158	0x3e3e319c	0.18573612
159	0xbeb3d9ed	-0.35127202
160	0xbcd05879	-0.025432812
161	0x3e8f3e6f	0.2797732
162	0xbeff0c24	-0.4981395
163	0xbe7afb0b	-0.24509828
164	0x3eaea055	0.341067
165	0x3e8a0221	0.2695475
166	0x3dcc3a40	0.09972048
167	0xbeca8320	-0.39553165
168	0xbef67e56	-0.48143262
169	0xbf97d28a	-1.1861126
170	0xbf9a1e55	-1.2040507
171	0x3d3ef5c6	0.046621107
172	0x3e311a0b	0.17295091
173	0x3ed153a8	0.40884137
174	0xbdf5273c	-0.11970374
175	0xbe36db5f	-0.17857121
176	0xbe70b1ef	-0.23505376
177	0xbeb69c13	-0.3566595
178	0x3e0bc343	0.13648705
179	0xbc4687f9	-0.012117379
180	0xbf06313a	-0.52418864
181	0xbec05781	-0.3756676
182	0xbe318839	-0.17337121
183	0x3e6068fa	0.21915045
184	0x3c0820ca	0.008308599
185	0xbe035767	-0.1282631
186	0x3e8744d7	0.26419708
187	0x3ede2f80	0.43395615
188	0xbe53718a	-0.2064878
189	0x3ea80a8f	0.32820556
190	0xbc89a1a7	-0.016800715
191	0x3e3c449e	0.1838555
192	0xbf4841f0	-0.7822561
193	0x3ed50aba	0.41609746
194	0xbf0d93ce	-0.5530366
195	0x3ea1adb6	0.31577843
196	0x3e3b8568	0.18312609
197	0x3e4287d6	0.1899713
198	0xbd030c9b	-0.031994443
199	0x3e10972d	0.14120169
200	0xbee4d5f1	-0.44694474
201	0xbc243e65	-0.010024642
202	0xbf2defb8	-0.67943907
203	0x3eb93b1e	0.36177915
204	0xbe8e2bd8	-0.27767825
205	0xbe8b13e6	-0.2716362
206	0x3e1c9c3f	0.15293978
207	0xbe2bf638	-0.16793144
208	0xbe45df8b	-0.19323556
209	0xbf2c2c93	-0.67255515
210	0xbeaf9fdb	-0.34301648
211	0x3cadc7ec	0.021213494
212	0xbe43dea0	-0.19127893
213	0xbca2cd27	-0.019873215
214	0xbe8543be	-0.26028246
215	0x3de019dc	0.10942432
216	0xbe57a891	-0.21060397
217	0x3d7be7be	0.061500303
218	0xbe80bb87	-0.25143072
219	0x3e1d163a	0.1534051
220	0xbe3ee708	-0.18642819
221	0x3d080801	0.033210758
222	0x3e23058e	0.15920088
223	0xbca1c6a3	-0.019748038
224	0xc005037f	-2.0783384
225	0xbe408975	-0.18802436
226	0xbe8acd08	-0.2710955
227	0xbe557291	-0.20844485
228	0x3b6e19e4	0.003633135
229	0xbe24d99b	-0.16098635
230	0xbe272b60	-0.1632514
231	0xbe2edf07	-0.17077266
232	0x3e84ce79	0.25938776
233	0xbe593c3a	-0.21214381
234	0xbe39734c	-0.18110389
235	0xbf01eb78	-0.5074992
236	0xbe88923c	-0.26674068
237	0xbda7257a	-0.08161445
238	0xbe3b0298	-0.18262708
239	0x3d0871ce	0.033311658
240	0xbe967da9	-0.29392746
241	0x3f2139e4	0.6297896
242	0x3e5e6ae0	0.21720457
243	0x3e5b82f8	0.2143668
244	0x3e0a7b7a	0.13523665
245	0x3e8c22af	0.2737021
246	0xbdc5dcd2	-0.09661259
247	0x3ea66ffc	0.32507312
248	0x3de478d1	0.111558564
249	0x3dab875b	0.083754264
250	0xbe2a8e05	-0.16655739
251	0x3dd43ee6	0.103635594
252	0xbe8eadfa	-0.2786711
253	0xbf7984c7	-0.9746823
254	0xbed81cc2	-0.4220944
255	0xbdbe8872	-0.09303369

model.1.fc1.bias f4 [16]
0	0x3e790d00	0.24321365
1	0xbe4a9c5b	-0.19786207
2	0xbe94acde	-0.29038137
3	0x3c1f9d3f	0.00974208
4	0x3ccc9613	0.024973905
5	0xbbabc6de	-0.0052422127
6	0x3e102f94	0.1408065
7	0xbea36be0	-0.3191824
8	0xbe6d09ae	-0.23148224
9	0xbd97fe31	-0.0742153
10	0xbd911367	-0.07083779
11	0xbe0bb912	-0.13644817
12	0xbde8d8f4	-0.113695055
13	0xbe9db0e5	-0.30799022
14	0xbe5937d3	-0.21212701
15	0xbdfbf689	-0.12302882

model.1.fc2.weight f4 [16, 16]
0	0xbe7129ec	-0.23551148
1	0x3e3779ca	0.17917553
2	0x3e42ae3a	0.19011775
3	0x3ea2954c	0.3175453
4	0xbde1d77d	-0.11027429
5	0xbe88fa32	-0.26753384
6	0xbd2c4b96	-0.042064272
7	0x3e9c76b0	0.305593
8	0x3e18b860	0.14914083
9	0xbe9941c5	-0.2993299
10	0xbe0cfe6f	-0.13768934
11	0x3e372755	0.17886098
12	0xbecce543	-0.40018663
13	0xbd9858ea	-0.07438834
14	0xbe91aa5d	-0.2845029
15	0xbe3f05f1	-0.1865461
16	0xbf0715fb	-0.52767915
17	0xbdb36b33	-0.08760681
18	0x3e9eee95	0.310414
19	0x3d983dbd	0.07433651
20	0xbf0af160	-0.5427456
21	0xbe3dd28b	-0.18537347
22	0xbce0d561	-0.027445497
23	0xbe02b144	-0.12762934
24	0xbe9e57a7	-0.30926248
25	0x3e2e659d	0.1703095
26	0xbe134bb1	-0.14384343
27	0x3e8d0ac2	0.2754727
28	0xbfa02b83	-1.2513279
29	0xbde72861	-0.112869985
30	0x3ebc3cc4	0.3676511
31	0x3e153fab	0.14575069
32	0x3eacd656	0.33757275
33	0xbeca0891	-0.3945966
34	0x3e44765c	0.19185776
35	0xbd95b2ef	-0.073095195
36	0xbe5c8b54	-0.21537524
37	0x3e0576d1	0.13033606
38	0xbed6c911	-0.41950276
39	0x3e5c3ee6	0.21508369
40	0x3daa5420	0.08316827
41	0xbd00c251	-0.031435315
42	0x3e265253	0.16242342
43	0x3ddfe2c4	0.10931924
44	0x3ef1aa8f	0.47200438
45	0xbe809c05	-0.25119033
46	0xbe8289e5	-0.2549583
47	0x3dca61c6	0.0988193
48	0x3e7a142e	0.2442176
49	0xbea5eaaa	-0.32405597
50	0x3d5fa75c	0.054602966
51	0x3e6df2e3	0.23237185
52	0xbe985899	-0.29755095
53	0x3e83b45a	0.25723535
54	0xbecdb7f8	-0.4017942
55	0xbd8492a7	-0.06473284
56	0x3e9b80b5	0.30371633
57	0xbeb5b9f8	-0.35493445
58	0xbe1cf5b0	-0.15328097
59	0xbdf2a0a4	-0.11847046
60	0xbe8c4d5b	-0.27402768
61	0xbebbd2b7	-0.366842
62	0x3ecc4935	0.39899603
63	0xbdaaee65	-0.083462514
64	0xbf283dc1	-0.6571923
65	0x3d809a02	0.06279375
66	0x3da246c8	0.07923657
67	0xbda114c3	-0.07865288
68	0xbf483e62	-0.7822019
69	0x3e260793	0.16213827
70	0x3d96bab3	0.07359829
71	0x3d3a3f63	0.045470607
72	0xbdc06a93	-0.093953274
73	0xbdd31947	-0.10307556
74	0xbc285f35	-0.010276605
75	0xbea91a5d	-0.33027926
76	0xbe5d298c	-0.2159788
77	0xbe46442d	-0.19361944
78	0xbd7c3aa1	-0.06157935
79	0xbea50e7b	-0.3223761
80	0xbcbd15d4	-0.023081698
81	0xbe650665	-0.2236572
82	0x3ea0bfed	0.31396428
83	0xbd60a5c7	-0.054845598
84	0x3c6037b1	0.013685153
85	0x3e932383	0.2873803
86	0x3e11de33	0.14244919
87	0xbec5367a	-0.38518125
88	0x3e47b3f6	0.19502243
89	0xbda8bbf2	-0.08238973
90	0xbd1ec3e2	-0.038761027
91	0x3d22e5ce	0.03976994
92	0xbea82983	-0.3284417
93	0x3a9cdd62	0.0011967833
94	0xbec09f42	-0.37621504
95	0xbdc3143c	-0.09525344
96	0xbe2c63da	-0.16834965
97	0x3d435b03	0.047694217
98	0xbe11f46f	-0.142534
99	0x3e1c0cdf	0.15239285
100	0x3e086a23	0.13321738
101	0xbe630e35	-0.22173388
102	0xbedd501f	-0.4322519
103	0x3e2c6c29	0.16838135
104	0xbed5034a	-0.41604072
105	0x3eac7a4e	0.3368706
106	0x3e1c27e8	0.15249598
107	0x3ebac844	0.36480916
108	0xbdb96c81	-0.090538986
109	0xbe8304e2	-0.25589663
110	0xbd963c7a	-0.07335754
111	0xbe92690c	-0.2859577
112	0x3df1ef1f	0.11813187
113	0x3eb9a813	0.36261043
114	0x3e26ffc3	0.16308503
115	0x3d90e1af	0.07074296
116	0xbe3c7bb3	-0.18406563
117	0x3ef26ea3	0.47350034
118	0xbd95b3b8	-0.07309669
119	0xbe6ba803	-0.2301331
120	0xbddfde9f	-0.109311335
121	0x3e6140e6	0.21997413
122	0xbe7b323d	-0.24530883
123	0x3e1c51ec	0.15265626
124	0x3e751a33	0.23935775
125	0xbe8984a2	-0.26859003
126	0x3e1ed9dc	0.15512794
127	0xbe87001b	-0.26367268
128	0xbe8d1218	-0.27552867
129	0x3db3897b	0.08766457
130	0xbe274a93	-0.16337042
131	0xbea45719	-0.320977
132	0xbefe66e4	-0.49687874
133	0x3d69f18e	0.05711513
134	0x3dbab013	0.09115615
135	0xbec81525	-0.39078632
136	0xbef76ed9	-0.48326758
137	0xbe2fd5a7	-0.17171346
138	0xbd98e4d9	-0.07465524
139	0x3e2a8fa4	0.16656357
140	0xbebf5a9d	-0.3737382
141	0xbe94806f	-0.29004237
142	0xbe5a3903	-0.2131081
143	0xbe991f33	-0.29906616
144	0xbe144beb	-0.14482085
145	0x3e0985e5	0.13429983
146	0xbe83afd7	-0.25720093
147	0x3ece626d	0.40309468
148	0x3df76317	0.12079447
149	0x3d842c85	0.06453804
150	0xbeab475e	-0.33452886
151	0xbe9fb284	-0.31190884
152	0x3e97ed70	0.29673338
153	0xbe799b8d	-0.24375744
154	0x3ece4e41	0.40294078
155	0xbe7dada8	-0.24773276
156	0xbd47d580	-0.048787594
157	0xbebc3a79	-0.3676336
158	0xbebddf29	-0.3708432
159	0x3e8a5d76	0.2702443
160	0xbe29b99d	-0.16574712
161	0x3e5d4e80	0.21611977
162	0xbecd4e78	-0.4009893
163	0xbec7d916	-0.3903281
164	0xbc1075ad	-0.008817119
165	0xbeb0886d	-0.34479085
166	0x3cc5d5b2	0.02414975
167	0x3ec54d3c	0.38535488
168	0x3e873623	0.2640849
169	0x3ec1669c	0.37773597
170	0xbea63e45	-0.32469383
171	0x3e6e4be9	0.23271145
172	0x3ea8c457	0.32962295
173	0x3e912f10	0.28356218
174	0xbddfb033	-0.10922279
175	0xbed44af4	-0.41463435
176	0xbea8b728	-0.32952237
177	0x3ed533a9	0.41640976
178	0x3e9275e7	0.28605577
179	0x3d710a5c	0.05884777
180	0x3d15c627	0.036565926
181	0xbcdf67c0	-0.027271152
182	0x3c874058	0.016510174
183	0xbe3605e4	-0.17775685
184	0x3df47763	0.11936834
185	0xbe1b14e7	-0.15144692
186	0xbe16182c	-0.14657658
187	0xbe938475	-0.28811994
188	0xbe3d7a14	-0.185036
189	0x3eb4cceb	0.3531259
190	0xbe5b7581	-0.21431543
191	0xbdb485e5	-0.08814601
192	0x3e662d04	0.2247811
193	0xbd866a37	-0.065632276
194	0xbd55d770	-0.05220741
195	0x3e2e4977	0.17020212
196	0x3ca5189f	0.020153342
197	0x3d0a0525	0.033696312
198	0xbcc7c56b	-0.024386128
199	0xbd2f80ba	-0.042847373
200	0xbe002ea7	-0.12517796
201	0x3e26f099	0.16302718
202	0x3dce67a1	0.100783594
203	0xbee3fc5c	-0.44528472
204	0x3f00f300	0.5037079
205	0xbe4526f3	-0.19253139
206	0xbe082b1e	-0.13297698
207	0xbe5418ba	-0.20712557
208	0x3e15afdc	0.14617866
209	0x3ddd28e3	0.10798814
210	0x3e982f75	0.29723707
211	0xbe599492	-0.21248081
212	0xbd6a3789	-0.05718187
213	0x3d79f2b2	0.061022468
214	0xbec57932	-0.38569027
215	0xbf3084d7	-0.689527
216	0x3e46194c	0.19345587
217	0x3d167ff0	0.036743104
218	0xbe1dcc95	-0.15410073
219	0xbf03dc99	-0.5150848
220	0xbe389b0c	-0.18027896
221	0xbd6149cd	-0.055002023
222	0xbd9465f5	-0.07246009
223	0x3eb67bd6	0.35641354
224	0x3e84fa19	0.2597206
225	0xbeda94f0	-0.42691755
226	0x3ea2c791	0.31792882
227	0xbe75542a	-0.23957887
228	0x3e34f627	0.17672025
229	0xbdcc4b48	-0.09975296
230	0x3eacdfea	0.33764583
231	0x3e630479	0.22169675
232	0x3ec45e23	0.3835307
233	0x3ec9f8f6	0.39447755
234	0xbe25f696	-0.16207346
235	0x3d52a12e	0.051423244
236	0x3ead0f3c	0.33800685
237	0x3cba49ae	0.022740211
238	0x3e9e5439	0.30923632
239	0x3e8a2746	0.26983088
240	0x3ddbb66b	0.10728153
241	0x3e2e897c	0.17044634
242	0x3e027f85	0.12743957
243	0xbe080f2f	-0.13287042
244	0xbc25d024	-0.010120425
245	0xbdb57df7	-0.088619165
246	0x3c9c3173	0.019066548
247	0x3eed4ded	0.46348515
248	0x3da205ac	0.07911238
249	0x3ec735c5	0.3890821
250	0x3dad4cc2	0.08461906
251	0xbe6fc9ce	-0.23416826
252	0x3f011d39	0.50435215
253	0xbe6a4ed2	-0.2288163
254	0x3ea219f0	0.31660414
255	0x3e88eb44	0.26741993

model.1.fc2.bias f4 [16]
0	0xbe0465ec	-0.12929505
1	0x3e8af147	0.27137205
2	0xbe8fdaa4	-0.28096497
3	0xbe5cf207	-0.21576701
4	0xbcb73b4e	-0.022367146
5	0x3dbe5bb4	0.09294835
6	0xbeaad36f	-0.33364436
7	0x3e078206	0.13233194
8	0x3dfa39b3	0.122180365
9	0xbe7875fd	-0.24263759
10	0xbeb7cf32	-0.35900265
11	0xbdf513b6	-0.1196665
12	0xbe0eaa34	-0.13932115
13	0xbe87dae3	-0.26534185
14	0xbe82af7d	-0.25524512
15	0xbe5f6246	-0.21814832

model.1.fc_residual.weight f4 [16, 32]
0	0x3e9d28bb	0.30695137
1	0xbe9d311a	-0.30701524
2	0x3e8b3bd0	0.2719407
3	0xbe9a4022	-0.30127054
4	0x3ec24bdb	0.37948498
5	0x3dc9d604	0.09855273
6	0x3e8b75f9	0.27238443
7	0x3a37d889	0.0007013162
8	0x3e30d6c8	0.17269433
9	0x3938f3f7	0.00017638491
10	0x3c280df6	0.010257235
11	0xbe0ddada	-0.13853016
12	0x3e614e25	0.22002466
13	0xbd79c920	-0.060982823
14	0x3e9c13d6	0.30483884
15	0xc019fad7	-2.405935
16	0xbe43081a	-0.19046059
17	0x3e5b670d	0.2142603
18	0xbe83de9d	-0.25755778
19	0xbcbcd326	-0.023049902
20	0x3eb6f7fe	0.35736078
21	0x3ce68af3	0.028142428
22	0x3da6ce3a	0.08144803
23	0xbea3a4ef	-0.31961772
24	0xbffe4250	-1.9863987
25	0xbe8e762d	-0.27824536
26	0xbee6b57d	-0.4506034
27	0xbe8bcc4f	-0.27304313
28	0xbeb8c7b3	-0.36089858
29	0xbf240791	-0.64074045
30	0xbea50f4e	-0.3223824
31	0xbe9ffcf0	-0.31247663
32	0xbe829230	-0.25502157
33	0xbef096c9	-0.4699004
34	0x3ca4e97c	0.020130865
35	0xbdd95e1c	-0.10613653
36	0x3e921c06	0.28537005
37	0x3f4257f8	0.7591548
38	0x3e5323d9	0.20619144
39	0xbe81c6e1	-0.25347045
40	0xbee330ca	-0.4437316
41	0x3e14de22	0.14537862
42	0x3e70fd62	0.23534158
43	0xbee2b16b	-0.44275984
44	0x3ebe11be	0.3712291
45	0xbe99ab2f	-0.30013415
46	0x3e8e9466	0.27847594
47	0xbe510972	-0.2041376
48	0xbe465f07	-0.19372188
49	0xbea7a758	-0.3274486
50	0x3dcceffc	0.10006711
51	0xbe8db0dc	-0.27673995
52	0xbefcd373	-0.49380073
53	0x3d662c62	0.05619467
54	0xbe4ac3af	-0.1980121
55	0x3f3f2f47	0.74681515
56	0x3eb1e5d9	0.34745672
57	0x3e91f133	0.28504333
58	0xbfad6e74	-1.3549333
59	0xbf1c3893	-0.61023825
60	0xbf155d0b	-0.583451
61	0xbc1e3664	-0.009656522
62	0xbd7fe925	-0.062478203
63	0xbf126684	-0.57187676
64	0x3f0178c1	0.5057488
65	0x3e259ff1	0.16174294
66	0x3ea4d4a0	0.3219347
67	0xbda598c7	-0.080857806
68	0xbe303675	-0.17208274
69	0x3c13c658	0.009019457
70	0xbe79abf8	-0.24382007
71	0xbe59151d	-0.2119946
72	0xbdcd403c	-0.10022017
73	0x3f270f58	0.6525779
74	0x3e343cb7	0.17601286
75	0xbe0ed81a	-0.13949624
76	0xbd8f9362	-0.07010533
77	0x3e874cf8	0.2642591
78	0x3ea67a40	0.32515144
79	0x3eb92203	0.3615876
80	0x3e70e4f6	0.23524842
81	0x3e05236e	0.13001797
82	0xbe5f27dd	-0.2179255
83	0xbe5158fd	-0.20444103
84	0xbf213e5a	-0.62985766
85	0x3e0d28e2	0.13785127
86	0xbe1ea567	-0.15492783
87	0x3c265c97	0.010153911
88	0x3ec7bf50	0.39013147
89	0xbe9323d3	-0.2873827
90	0x3ea20b9f	0.3164949
91	0x3e835b03	0.25655374
92	0xbda2623e	-0.079288945
93	0x3c57dd2e	0.013175292
94	0xbe523ae1	-0.20530273
95	0xbd68c9e1	-0.05683315
96	0x3c742591	0.014901535
97	0x3d7d6cd1	0.061871354
98	0xbea0dfa4	-0.31420624
99	0xbebbdcf0	-0.36692
100	0xbd59a2c7	-0.053133752
101	0x3b9a6ae7	0.004712451
102	0xbe7d0772	-0.24709871
103	0x3d5e241b	0.05423365
104	0xbb42ee22	-0.002974399
105	0x3e3c43e3	0.18385272
106	0xbdd2245f	-0.102608435
107	0xbabc06a0	-0.0014345236
108	0xbe36e4f8	-0.17860782
109	0x3e534981	0.20633508
110	0x3e74b731	0.23898007
111	0x3e98d301	0.29848483
112	0x3da924f4	0.082590014
113	0xbdfc2b3f	-0.12312936
114	0xbe41436b	-0.18873374
115	0x3e1a22c2	0.15052322
116	0xbebe54f5	-0.37174192
117	0xbe93ca17	-0.2886512
118	0xbe77fe1d	-0.2421803
119	0x3df1a1ea	0.11798461
120	0xbea2ae88	-0.31773782
121	0xbe2b4b25	-0.16727884
122	0xbd880b67	-0.066428
123	0xbccafe50	-0.024779469
124	0xbe60543e	-0.21907136
125	0x3d394466	0.045231245
126	0xbd67f55b	-0.056630474
127	0x3e542d3a	0.20720378
128	0x3e0d0b56	0.13773856
129	0xbd9769e0	-0.07393241
130	0x3ec463d1	0.38357404
131	0xbd43255b	-0.047643047
132	0xbe0a988e	-0.13534757
133	0x3e41f801	0.18942262
134	0x3e8ddec7	0.27709028
135	0x3e376406	0.1790925
136	0xbe1c00a6	-0.15234622
137	0x3ec1aab0	0.37825537
138	0x3e1f0661	0.15529777
139	0xbe305d88	-0.1722318
140	0x3dcafef5	0.099119104
141	0xbda15a6e	-0.07878576
142	0x3e4dd65c	0.20101303
143	0x3ea1d088	0.3160441
144	0xbdaf210b	-0.08551224
145	0x3d415416	0.04719933
146	0xbe8338cd	-0.25629273
147	0x3df9012a	0.12158425
148	0x3dc5a1f0	0.09650028
149	0x3db18e69	0.08669741
150	0xbe521a76	-0.20517907
151	0x3d48f6f7	0.04906365
152	0x3e9965fe	0.29960626
153	0xbe16e6de	-0.14736506
154	0xbe5fd603	-0.21858983
155	0xbe8ae413	-0.27127132
156	0xbe6c5e48	-0.2308284
157	0xbcc1b88a	-0.023647565
158	0x3ecd5851	0.40106443
159	0x3dc4b1b7	0.09604209
160	0xbe2dbc16	-0.1696628
161	0xbeb5333a	-0.35390645
162	0xbe836a5d	-0.25667086
163	0x3eb56416	0.35427922
164	0xbe59ee57	-0.21282326
165	0xbeb15c1a	-0.3464058
166	0x3e245bad	0.16050597
167	0xbee59946	-0.448435
168	0xbef4874f	-0.47759482
169	0xbe678ada	-0.22611561
170	0x3f0c3b3c	0.54777884
171	0x3e4e8df5	0.2017134
172	0x3d0939ad	0.03350227
173	0x3e3e4c4b	0.18583791
174	0x3db9cb33	0.0907196
175	0xbe5e8162	-0.21729043
176	0x3e89255d	0.26786318
177	0x3dc9275e	0.09821962
178	0xbd811f2c	-0.06304774
179	0xbeb23919	-0.34809187
180	0xbe80d539	-0.25162676
181	0xbd5182eb	-0.051150244
182	0x3c16fa59	0.009214961
183	0xbf5e4eac	-0.86838794
184	0xbf1b7a98	-0.6073394
185	0x3e135fba	0.14391986
186	0xbfaefe0f	-1.3671283
187	0x3e83168a	0.25603133
188	0x3e8db09d	0.27673808
189	0x3ecd5bf5	0.4010922
190	0x3e8ea729	0.27861908
191	0x3ceaa065	0.028640935
192	0x3d9c4f89	0.076323576
193	0xbf0be551	-0.54646784
194	0x3e114799	0.14187469
195	0xbe7e77e9	-0.2485043
196	0x3e2c2484	0.16810805
197	0x3f67ed55	0.90596515
198	0xbed33d1b	-0.41257557
199	0x3f16eb3b	0.58952683
200	0xbeba8c9b	-0.36435398
201	0x3f1fea60	0.62467
202	0x3ed63967	0.4184067
203	0xbfebc4d7	-1.8419446
204	0x3cc9db9b	0.024640849
205	0xbf09a3ef	-0.5376577
206	0x3e963e28	0.29344296
207	0x3eec86d6	0.46196622
208	0xbecc7f7f	-0.39941022
209	0x3c8faa87	0.017537368
210	0x3d13683d	0.03598808
211	0xbda546c4	-0.08070138
212	0xbe6c4e2a	-0.23076692
213	0x3dd4139f	0.10355305
214	0xbf04768f	-0.51743406
215	0xbdb5d14a	-0.08877809
216	0x3ef4623b	0.47731194
217	0xbdc4dab3	-0.09612026
218	0x3ea6ac27	0.32553217
219	0x3e3183c8	0.17335427
220	0xbf224b42	-0.63396084
221	0x3e0b966a	0.13631597
222	0xbeabd839	-0.33563402
223	0xbf802d2e	-1.0013788
224	0xbe44a054	-0.19201785
225	0x3dfd18a8	0.123582184
226	0x3e21bda1	0.15794994
227	0xbed7fd70	-0.42185545
228	0xbe6e89f0	-0.23294806
229	0xbf0636d1	-0.52427393
230	0x3e2b6bee	0.1674039
231	0xbd67e6b5	-0.056616504
232	0xbe6579c8	-0.22409737
233	0xbe94c3bf	-0.29055592
234	0x3cb702aa	0.022340138
235	0xbdc3a024	-0.09552029
236	0x3e8601f3	0.26173362
237	0xbeb91de1	-0.36155608
238	0xbd894c6b	-0.06704029
239	0x3ee8da8e	0.45479244
240	0xbe0f20a8	-0.13977301
241	0x3ec1c49e	0.3784532
242	0xbd983267	-0.074314885
243	0xbe81c470	-0.25345182
244	0x3e41c9ca	0.18924633
245	0x3d5712ac	0.05250804
246	0xbdd4e7b3	-0.103957556
247	0x3e16f232	0.14740828
248	0x3dccfdb7	0.1000933
249	0xbdbfe79a	-0.09370346
250	0xbc76dc2d	-0.015067142
251	0x3e1e73d9	0.1547388
252	0x3dc57537	0.096414976
253	0x3ef31bf5	0.47482267
254	0x3c2ff54d	0.010739637
255	0x3e116386	0.14198121

model.1.fc_residual.bias f4 [16]
0	0xbe1d40b6	-0.15356717
1	0xbe129eb9	-0.1431836
2	0xbeaab162	-0.33338457
3	0xbe6d9a47	-0.23203383
4	0x3db1ed81	0.086878784
5	0x3d0e8b38	0.034800738
6	0xbe2c7825	-0.16842707
7	0xbdfb292f	-0.122637145
8	0x3d246b60	0.040141463
9	0xbd4c5267	-0.049883272
10	0xbdf65939	-0.120287366
11	0x3d963796	0.07334821
12	0x3e13cbc2	0.14433196
13	0xbe186696	-0.14882883
14	0xbdb80859	-0.08985967
15	0xbd4792e2	-0.048724063

model.2.fc1.weight f4 [8, 16]
0	0x3d42f288	0.047594577
1	0x3f0efb9b	0.5585267
2	0x3ee5184a	0.44745094
3	0x3e5928df	0.21206997
4	0x3cec3a26	0.028836321
5	0x3e3d7b76	0.18504128
6	0x3eb703d4	0.35745108
7	0xbeee5637	-0.46550152
8	0xbf1cb45f	-0.61212724
9	0xbe17a2cd	-0.14808197
10	0x3da3a825	0.079910554
11	0x3e6c213c	0.23059553
12	0xbeaf132a	-0.3419431
13	0xbe5a554b	-0.21321599
14	0x3eb54566	0.3540451
15	0xbf38674e	-0.7203263
16	0xbd1fc96d	-0.039010454
17	0xbebb2f95	-0.3655974
18	0x3eb62d5a	0.35581475
19	0x3ec919f4	0.39277613
20	0xbe133b7e	-0.14378163
21	0x3ed6aa4a	0.41926795
22	0x3edf94ec	0.43668306
23	0x3e40f94b	0.18845098
24	0xbe8ef8b1	-0.2792411
25	0xbec4d8b5	-0.38446584
26	0xbef21460	-0.4728117
27	0xbe906a89	-0.2820628
28	0xbdf1b944	-0.11802915
29	0xbecb04c8	-0.39652085
30	0xbd4a6678	-0.049414128
31	0xbef1107f	-0.47082898
32	0x3df8e464	0.12152937
33	0xbf0b3fbb	-0.5439412
34	0xbfba0101	-1.4531556
35	0xbdc6e8c9	-0.09712369
36	0x3e2d2933	0.16910248
37	0x3e39cd39	0.18144692
38	0xbef01e4e	-0.4689812
39	0x3e8f15cb	0.27946314
40	0xbeb582d5	-0.3545138
41	0x3e6b87c0	0.23001003
42	0xbe07e1d7	-0.13269745
43	0x3f293188	0.66091204
44	0xbf0677e3	-0.5252668
45	0xbdbd17eb	-0.092330776
46	0x3ef05cfc	0.4694594
47	0xbeacccd3	-0.33750018
48	0x3de4e923	0.1117728
49	0x3eeb6f7e	0.459835
50	0x3e742260	0.23841238
51	0xbe86dbfb	-0.26339707
52	0xbed8f2f9	-0.42372873
53	0x3df46987	0.1193419
54	0x3e5dd76c	0.21664208
55	0xbe527d49	-0.20555605
56	0xbecb87eb	-0.39752135
57	0x3e3085bb	0.17238514
58	0xbd4e5b61	-0.050380114
59	0x3e8f5a18	0.27998424
60	0xbe12d593	-0.14339285
61	0x3e125250	0.14289212
62	0x3e3dc45a	0.18531933
63	0x3eb8fe93	0.36131725
64	0x3de2cde7	0.11074429
65	0xbef316f4	-0.4747845
66	0xbeff7417	-0.49893257
67	0x3cc638fe	0.024197098
68	0x3e95c6e4	0.29253304
69	0xbf12f33a	-0.57402384
70	0x3ebca899	0.3684738
71	0x3e02e4a4	0.12782532
72	0xbe9305b7	-0.28715298
73	0xbefb3caa	-0.4906972
74	0x3d9730bf	0.073823445
75	0xbee8b1d5	-0.45448175
76	0xbf23d530	-0.63997173
77	0x3dc5d9d1	0.09660686
78	0x3dd08bd1	0.10182918
79	0xbdd7b273	-0.10532083
80	0xbef02b0d	-0.46907845
81	0xbef25d10	-0.47336626
82	0x3e8c0774	0.27349436
83	0x3d95b869	0.07310564
84	0x3dcd2fb1	0.10018862
85	0x3e9690fe	0.29407495
86	0xbef223f9	-0.4729307
87	0x3cfeeb8e	0.03111818
88	0x3e61c4fe	0.22047803
89	0xbe8c8138	-0.27442336
90	0x3e5c5a02	0.2151871
91	0xbe8d915d	-0.27649966
92	0xbf1201fe	-0.5703429
93	0x3e53e28e	0.20691893
94	0x3db87004	0.0900574
95	0xbea27204	-0.31727612
96	0xbe7aa4c7	-0.2447692
97	0x3deafa00	0.11473465
98	0x3ec5b7b4	0.38616717
99	0xbec1f8f8	-0.3788526
100	0xbea0d5e3	-0.31413183
101	0xbdf0de9f	-0.117612116
102	0xbe13768c	-0.14400691
103	0xbc9341c2	-0.017975692
104	0x3ded73b7	0.115943365
105	0xbcea7e21	-0.028624596
106	0x3ec666ed	0.387504
107	0x3da772d7	0.08176201
108	0xbea31f09	-0.31859615
109	0xbe9f293a	-0.3108614
110	0xbe945c27	-0.28976557
111	0xbe0c965e	-0.13729236
112	0x3dae975a	0.08524962
113	0xbeb70ab4	-0.35750353
114	0xbe33c0df	-0.17554043
115	0xbb1e5a51	-0.002416272
116	0xbe36430b	-0.17799012
117	0x3ea4a5da	0.32157785
118	0xbe9575be	-0.29191393
119	0xbf8659be	-1.0496137
120	0x3ec14919	0.37751082
121	0xbee3002c	-0.4433607
122	0xbeb8c93e	-0.36091036
123	0xbde83bf9	-0.11339564
124	0xbf0f21ed	-0.5591114
125	0xbf110d18	-0.56660604
126	0xbe073bd1	-0.13206412
127	0xbed43751	-0.41448453

model.2.fc1.bias f4 [8]
0	0x3d81d456	0.06339328
1	0xbe1efb74	-0.15525609
2	0x3d3cad65	0.0460638
3	0xbe861229	-0.2618573
4	0xbe941e5d	-0.28929415
5	0xbf0a0eff	-0.5392913
6	0xbce6dbd7	-0.028181
7	0x3cdf2452	0.027238999

model.2.fc2.weight f4 [8, 8]
0	0xbed41009	-0.41418484
1	0x3d31fe19	0.043455217
2	0xbe420255	-0.18946202
3	0xbde4debd	-0.111752965
4	0xbe592973	-0.21207218
5	0xbea95965	-0.33076015
6	0x3ebe88e3	0.3721381
7	0xbe91ad92	-0.28452736
8	0xba5653bd	-0.000817593
9	0x3f1de31d	0.6167467
10	0x3f7bb16f	0.9831762
11	0xbea2b713	-0.317803
12	0x3e349f08	0.1763879
13	0x3eaae698	0.33379054
14	0xbec3175e	-0.38103765
15	0x3ea59577	0.32340595
16	0x3d3455dd	0.044027198
17	0xbe45b789	-0.19308294
18	0xbf0192e6	-0.50614774
19	0xbe883bef	-0.26608226
20	0x3edae493	0.42752513
21	0x3c9ad7d2	0.01890174
22	0xbed14248	-0.4087088
23	0x3e25125e	0.16120288
24	0xbe3e5dd7	-0.18590485
25	0x3f00debe	0.5033988
26	0x3e1cc582	0.15309718
27	0xbedfc8b8	-0.43707824
28	0x3f19944c	0.5999191
29	0xbeb1dfcf	-0.34741065
30	0xbebebc45	-0.37253013
31	0xbef0d65e	-0.4703855
32	0x3ed72ab9	0.42024782
33	0xbed151b4	-0.40882647
34	0xbf8d0ea4	-1.1020093
35	0x3dc2f56f	0.09519469
36	0xbedfe1fd	-0.43727103
37	0xbe11ae06	-0.14226541
38	0xbc8a6ea1	-0.016898455
39	0xbe0ac589	-0.13551916
40	0xbd8c6c4b	-0.06856593
41	0x3dd4cf37	0.103910856
42	0x3e2e0328	0.16993392
43	0x3eb32356	0.34987897
44	0xbd84c74d	-0.06483326
45	0xbda433a0	-0.08017659
46	0x3ebd9f02	0.37035376
47	0xbea293ea	-0.31753474
48	0xbea77127	-0.32703516
49	0xbeb63845	-0.35589805
50	0x3cf5cd94	0.030005254
51	0x3d65fc27	0.056148674
52	0xbea768cb	-0.32697138
53	0xbf0123d8	-0.5044532
54	0x3ef16507	0.4714739
55	0x3d72df64	0.059295073
56	0x3e9d7191	0.30750707
57	0xbe642343	-0.22279076
58	0xbc8184fb	-0.01581048
59	0xbea8d145	-0.3297216
60	0xbe9d2b83	-0.3069726
61	0xbe0e5895	-0.13900979
62	0x3ee14617	0.43998787
63	0xbf0280f5	-0.5097802

model.2.fc2.bias f4 [8]
0	0xbeabfe93	-0.33592662
1	0xbdb4399a	-0.08800049
2	0x3e9b3e40	0.3032093
3	0xbeb5f58d	-0.35538903
4	0x3d73e072	0.05954022
5	0x3dce2758	0.10066098
6	0x3e98f2ca	0.29872733
7	0xbe37481f	-0.17898606

model.2.fc_residual.weight f4 [8, 16]
0	0x3eddd867	0.43329164
1	0x3efb8d6d	0.49131337
2	0x3e274ad8	0.16337144
3	0x3e1e633a	0.1546754
4	0xbee32b09	-0.4436877
5	0xbd272550	-0.04080707
6	0xbea12e3c	-0.31480587
7	0x3e6763f9	0.2259673
8	0xbc0c6f1c	-0.008571412
9	0x3ef08e0a	0.46983367
10	0xbdd85798	-0.10563582
11	0xbee1708a	-0.44031173
12	0xbedefefe	-0.4355392
13	0xbe8023ad	-0.25027218
14	0xbe6fa262	-0.23401788
15	0xbedc0573	-0.42972907
16	0x3dbe4be3	0.09291818
17	0xbdeff8a5	-0.11717347
18	0x3dc2c8c2	0.09510948
19	0x3ea8fbc8	0.33004594
20	0x3e150e24	0.14556175
21	0x3d45b27d	0.048265923
22	0xbebe7b32	-0.37203366
23	0x3f0b7e49	0.5448957
24	0xbea97ba7	-0.33102152
25	0x3d9cd742	0.07658245
26	0x3d9d78ba	0.076890424
27	0x3d927cfb	0.071527444
28	0xbde7adfa	-0.1131248
29	0xbe8c4b25	-0.2740108
30	0xbde4c277	-0.11169904
31	0x3cd6be4d	0.02621379
32	0xbd1bcfb8	-0.038039893
33	0x3e901f6f	0.28148982
34	0x3ee6b6db	0.45061383
35	0x3ea50deb	0.3223718
36	0x3e803d54	0.2504679
37	0x3ca61e9c	0.020278268
38	0x3f0437b8	0.5164752
39	0x3d3d2350	0.046176255
40	0x3c33e7fa	0.0109806005
41	0xbeef2162	-0.46705157
42	0xbea89f66	-0.3293411
43	0xbe0d059e	-0.13771674
44	0xbe99df39	-0.30053118
45	0x3df415ae	0.119181976
46	0x3ecc5ac1	0.3991299
47	0x3ec09e9d	0.37621012
48	0x3e690973	0.22757511
49	0xbd5738a4	-0.05254425
50	0xbd45cbfc	-0.048290238
51	0x3edf5f9d	0.43627635
52	0xbca50f76	-0.020148974
53	0xbee764b0	-0.45194006
54	0x3ddfa06b	0.10919269
55	0x3ea7f372	0.32802922
56	0x3eb1d9dd	0.3473653
57	0x3e5a96d5	0.213466
58	0x3ef2c03e	0.47412294
59	0xbe53c527	-0.20680676
60	0xbed3e623	-0.41386518
61	0xbec33883	-0.38129053
62	0x3ed05869	0.40692452
63	0xbd78923b	-0.06068633
64	0xbf4ff14c	-0.81227565
65	0x3ed12be8	0.4085381
66	0xbff8b4ab	-1.9430135
67	0x3d6dc6a5	0.05805077
68	0x3d4bab6a	0.04972402
69	0xbd49794f	-0.049187955
70	0xc022de0e	-2.5448031
71	0x3b8726d7	0.004124503
72	0xbe9866f7	-0.29766056
73	0xbec11d85	-0.37717834
74	0x3e36198e	0.17783186
75	0x3e2ae7f2	0.16690043
76	0xbda9a6db	-0.08283778
77	0xbdb8fc66	-0.09032516
78	0x3e0aaeb7	0.13543211
79	0xbede30ca	-0.43396598
80	0xbcce3ff3	-0.025176978
81	0x3d34a4d8	0.04410252
82	0xbcab79ac	-0.020932041
83	0xbd0512d4	-0.03248866
84	0x3e07bb07	0.13254939
85	0x3e08050d	0.13283177
86	0xbeb5d764	-0.35515893
87	0xbe9011e6	-0.28138655
88	0x3e4e2d48	0.20134461
89	0x3eb2c86f	0.34918544
90	0x3ee18fb3	0.44054946
91	0x3f0dbab6	0.55363023
92	0x3e75b2eb	0.23994033
93	0xbdb221ba	-0.08697839
94	0xbe195b57	-0.1497625
95	0xbebbd6fa	-0.36687452
96	0xbf7ae31a	-0.9800278
97	0x3ed21153	0.41028842
98	0x3e13b58b	0.14424722
99	0xbda6d49b	-0.0814602
100	0x3e937318	0.28798747
101	0x3e5823ed	0.21107455
102	0x3e781f6d	0.24230738
103	0xbdf0d4f6	-0.11759369
104	0x3e739b8b	0.23789804
105	0x3eb561f6	0.354263
106	0xbefed8d1	-0.49774793
107	0xbe9c5524	-0.30533707
108	0x3e0c664a	0.13710895
109	0xbf505f02	-0.8139497
110	0xbe663744	-0.2248202
111	0xbec95417	-0.39321968
112	0x3e2f0294	0.17090827
113	0xbf35fe46	-0.71091115
114	0x3f3a0355	0.72661334
115	0x3e6d397d	0.23166461
116	0x3efbc200	0.49171448
117	0xbefaca41	-0.48982432
118	0xbf02e67c	-0.5113294
119	0x3ce112af	0.02747473
120	0xbe40f48f	-0.18843292
121	0x3ee63b90	0.44967318
122	0x3efeb1eb	0.49745116
123	0xbf136dd6	-0.5758947
124	0x3e622b40	0.22086811
125	0xbec89de1	-0.39182952
126	0x3e4ababa	0.19797793
127	0xbce34e4b	-0.027747294

model.2.fc_residual.bias f4 [8]
0	0xbda5490c	-0.08070573
1	0xbe300900	-0.17190933
2	0xbd096b0f	-0.033549365
3	0xbe874e10	-0.26426744
4	0x3dbef7c2	0.093246
5	0x3db9fbe6	0.09081249
6	0xbe2e1cdb	-0.17003195
7	0xbe987414	-0.2977606

model.3.weight f4 [1, 8]
0	0x3edf2db0	0.43589544
1	0x3dbb2075	0.0913705
2	0x3e8346ac	0.25639856
3	0xbf39502d	-0.72387964
4	0xbe9fb41f	-0.3119211
5	0x3e40381e	0.18771407
6	0x3db29886	0.08720498
7	0x3dae1157	0.08499401
