model_lib/resnet_l_model.pth (torch, 19394 bytes, 19 tensors)

model.0.fc1.weight f4 [32, 5]
0	0x3e0a3a30	0.1349876
1	0xbeefa9b0	-0.4680915
2	0xbf1d774d	-0.61510164
3	0x3dabe6fa	0.08393665
4	0x3ec5235e	0.38503546
5	0xbeb9673f	-0.36211583
6	0xbd4d485c	-0.050117835
7	0xbc8c6703	-0.017138964
8	0x3e2d337b	0.1691417
9	0xbd502617	-0.050817575
10	0xbf05585a	-0.5208794
11	0x3ccfbc91	0.02535847
12	0xbe3cd43a	-0.18440333
13	0x3d42699b	0.047463994
14	0x3cf9217f	0.03041148
15	0x3eada8bb	0.33917794
16	0xbe156f18	-0.1459316
17	0xbda37db1	-0.07982958
18	0xbeda0903	-0.42585
19	0xbd7adc07	-0.06124499
20	0xbc52d576	-0.012868276
21	0xbeb76ad4	-0.3582369
22	0x3ead5963	0.3385726
23	0xbe65fc4b	-0.22459523
24	0xbec0d881	-0.3766518
25	0xbe8deb76	-0.27718705
26	0xbd7dd108	-0.061966926
27	0xbc174dc5	-0.00923485
28	0x3d586029	0.05282608
29	0xbe3f9282	-0.18708232
30	0x3e84683c	0.25860775
31	0xbdcf1833	-0.101120375
32	0xbea6f280	-0.32606888
33	0xbcd46beb	-0.025930366
34	0x3e759b26	0.23984966
35	0xbdc60a24	-0.09669903
36	0xbf013062	-0.5046445
37	0x3e0d8977	0.1382197
38	0xbd063a59	-0.03277049
39	0xbde54f74	-0.11196795
40	0xbee927b5	-0.45538107
41	0xbe1751f1	-0.14777352
42	0xbc1cc8f4	-0.009569395
43	0x3e51df06	0.20495233
44	0x3adff1ed	0.0017085649
45	0xbd21e1af	-0.03952187
46	0xbebdf23e	-0.3709888
47	0x3d9a29cc	0.07527503
48	0xbe6b5aab	-0.22983806
49	0xbe935a5e	-0.28779882
50	0xbe3cb86c	-0.18429726
51	0xbe1fe324	-0.15613991
52	0x3db09c15	0.0862352
53	0x3e30376d	0.17208643
54	0xbb815c7c	-0.0039477926
55	0xbea7df6a	-0.3278764
56	0x3e5cb1be	0.21552178
57	0xbe317d16	-0.17332873
58	0xbd8ba2f7	-0.068181925
59	0x3c4d8acf	0.012545302
60	0xbed91e6b	-0.4240602
61	0xbe7d3bda	-0.24729863
62	0x3db14bab	0.08657011
63	0x3e110310	0.14161325
64	0xbe06d584	-0.13167387
65	0x3e0bad60	0.13640356
66	0xbe78dde7	-0.24303399
67	0xbf067030	-0.52514935
68	0xbcc4aa8b	-0.024007102
69	0x3e83c5a0	0.25736713
70	0xbc247942	-0.010038676
71	0xbe88ca4d	-0.26716843
72	0xbeb9a4c3	-0.36258516
73	0x3e0e6080	0.13904
74	0x3ec2976d	0.38006154
75	0x3d8bde0d	0.06829462
76	0xbe9cc255	-0.30617014
77	0xbeeab148	-0.4583838
78	0x3d9e40c5	0.077271976
79	0x3e9b2230	0.3029952
80	0x3e14981d	0.14511152
81	0xbc9272e9	-0.017877059
82	0x3e8ac875	0.27106062
83	0xbecf6aad	-0.40511075
84	0xbea61e60	-0.3244505
85	0xbd690190	-0.056886256
86	0xbeec453f	-0.4614658
87	0x3bfcd322	0.0077155987
88	0xbe73df3e	-0.23815629
89	0xbb82bc1a	-0.0039897086
90	0xbf009442	-0.50226223
91	0x3c28e28c	0.010307919
92	0x3e76bd41	0.24095632
93	0x3dbb70a4	0.09152344
94	0xbe2eb0c0	-0.17059612
95	0x3b2b5ed0	0.0026149042
96	0xbe9a0228	-0.3007977
97	0xbc198ce5	-0.009371971
98	0xbec0c2c3	-0.3764859
99	0xbbf8b639	-0.007590082
100	0x3e19a4ec	0.15004319
101	0xbe10868c	-0.14113826
102	0xbeee20ce	-0.46509403
103	0xbce78042	-0.0282594
104	0x3e62fcfd	0.2216682
105	0x3e0a7b4d	0.13523598
106	0xbee05fe0	-0.43823147
107	0xbf0d084b	-0.5509078
108	0x3c573f1e	0.013137607
109	0x3e8707d1	0.2637315
110	0x3c361ea3	0.011115703
111	0xbebc0181	-0.36719897
112	0x3d9fb526	0.07798223
113	0xbe6eb0e2	-0.23309663
114	0xbe3ed63e	-0.18636414
115	0x3f0c7d64	0.5487883
116	0xbea6f3fc	-0.3260802
117	0xbd84d94c	-0.064867586
118	0xbf2ca810	-0.67443943
119	0xbcd815f9	-0.026377665
120	0x3d97a8a6	0.07405214
121	0xbe66f4eb	-0.22554366
122	0xbf24ed45	-0.64424545
123	0x3d39ba96	0.045343958
124	0x3e56d378	0.20979106
125	0x3d81594c	0.0631586
126	0xbdbdf24b	-0.09274729
127	0xbef36a93	-0.47542247
128	0xbe1043fa	-0.14088431
129	0x3e4065a4	0.18788773
130	0x3d14f57b	0.03636692
131	0xbb86ef29	-0.0041178656
132	0xbecfe5ab	-0.4060491
133	0x3d2cf564	0.04222621
134	0xbc42031e	-0.0118415635
135	0x3e391dc7	0.18077765
136	0xbe8e5191	-0.27796605
137	0xbf135e6f	-0.5756597
138	0x3cc0c481	0.0235312
139	0x3ebe1a02	0.37129217
140	0xbecb540c	-0.3971256
141	0xbe567bc5	-0.20945652
142	0xbc0b4a00	-0.00850153
143	0x3e5d3f2d	0.21606131
144	0xbbc7aeab	-0.00609382
145	0xbec8fb3b	-0.39254174
146	0xbe1e2bef	-0.15446447
147	0xbee4f2c0	-0.44716454
148	0xbe12a85b	-0.14322035
149	0xbeacaeb7	-0.33727047
150	0xbef17a88	-0.47163796
151	0xbeaf6c52	-0.3426233
152	0xbc2cb266	-0.01054058
153	0x3e710423	0.23536734
154	0x3be64986	0.0070278076
155	0x3dee9eff	0.1165142
156	0xbe98466c	-0.29741228
157	0xbf20a1fc	-0.6274717
158	0xbc892747	-0.016742362
159	0x3e74c14b	0.2390186

model.0.fc1.bias f4 [32]
0	0xbe7e6c2c	-0.24845952
1	0xbf02a25f	-0.5102901
2	0xbeaa6daf	-0.33286807
3	0xbe32996d	-0.1744134
4	0x3e5028c8	0.20328057
5	0xbe963dc6	-0.29344004
6	0xbeb0f166	-0.34559172
7	0xbf139667	-0.5765137
8	0xbf205f74	-0.6264565
9	0xbde0217d	-0.109438874
10	0xbf315318	-0.69267416
11	0xbf0a9f2b	-0.5414912
12	0xbf0a1621	-0.53940016
13	0xbe961ad3	-0.2931734
14	0xbe36a8e7	-0.17837869
15	0xbe4d682c	-0.2005927
16	0xbd6fa18d	-0.058503676
17	0xbeac6b9a	-0.33675843
18	0xbf305529	-0.68879944
19	0xbdd5321b	-0.104099475
20	0xbe5326c1	-0.20620252
21	0xbd673836	-0.05645009
22	0xbd5c3244	-0.053758875
23	0xbec7359c	-0.38908088
24	0xbe92fe67	-0.2870972
25	0xbf03d674	-0.51499104
26	0xbe89a069	-0.26880196
27	0xbe5562e2	-0.20838502
28	0xbefd873f	-0.49517247
29	0xbef80f3e	-0.4844913
30	0xbf0250b0	-0.5090437
31	0xbe6c2c32	-0.23063734

model.0.fc2.weight f4 [32, 32]
0	0xbc837f5e	-0.016051944
1	0xbe001527	-0.12508069
2	0xbf658e25	-0.8967002
3	0xbd36922e	-0.044573
4	0xbc659e1d	-0.014014748
5	0xbec1fb4d	-0.3788704
6	0x3bcb7b0e	0.0062097376
7	0xbd337655	-0.043814022
8	0xbdd207b8	-0.102553785
9	0xbd7f9892	-0.06240136
10	0xbb942290	-0.0045207217
11	0xbe04baa7	-0.12961827
12	0xbe772bfb	-0.24137871
13	0x3b736b3b	0.0037142772
14	0xbdcff6cf	-0.10154497
15	0xbe91e322	-0.284936
16	0xbe1c1b4f	-0.15244792
17	0xbed824df	-0.4221563
18	0xbe5b0e2c	-0.21392125
19	0xbe843788	-0.25823617
20	0xbe5ec4d7	-0.21754776
21	0xbd8dc3e2	-0.06922127
22	0xbdaa6d32	-0.083216086
23	0x3f83ce30	1.0297298
24	0xbf01b174	-0.50661397
25	0xbd7856e2	-0.060629733
26	0x3e1c9b73	0.15293674
27	0xbe2d7776	-0.16940102
28	0xbf02f6f8	-0.51158094
29	0xbdfe3eeb	-0.124143444
30	0xbebbfdb9	-0.36717013
31	0x3dbe450b	0.09290513
32	0xbd1037ed	-0.035209585
33	0x3e814b26	0.25252646
34	0x3dd24b84	0.1026831
35	0x3d341fc6	0.043975614
36	0x3e8b8382	0.2724877
37	0x3e08f0c4	0.13373095
38	0x3d582570	0.05277008
39	0xbe468837	-0.193879
40	0x3eb1bfe0	0.34716702
41	0xbf4debce	-0.80437934
42	0x3e4722d5	0.19446881
43	0x3e110102	0.1416054
44	0x3e92cff8	0.28674293
45	0x3dd970fc	0.10617253
46	0xbe08234b	-0.13294713
47	0x3d0422b5	0.03225966
48	0x3e85ef6b	0.26159224
49	0xbf2ffeca	-0.6874815
50	0xbc842e9a	-0.016135503
51	0xbefdbe03	-0.4955903
52	0xbd175b13	-0.03695209
53	0xbd8d0253	-0.06885209
54	0xbf3f3d8f	-0.74703306
55	0x3e5e4784	0.21706969
56	0x3d5f447f	0.054508682
57	0xbcbd55d4	-0.023112215
58	0xbbd08d31	-0.0063644876
59	0xbcdb2836	-0.026752573
60	0xbc7b9460	-0.0153552
61	0xbe88e59d	-0.2673768
62	0x3de6e5a9	0.11274273
63	0xbc1163ba	-0.008873874
64	0x3ede67f9	0.434387
65	0xbe1300b8	-0.14355743
66	0x3d8e174a	0.06938036
67	0x3e959e9d	0.29222575
68	0x3c4f277f	0.012643694
69	0x3dd3b48e	0.103371724
70	0x3e8b8d24	0.2725612
71	0x3c65cda1	0.0140260765
72	0xbefef199	-0.497937
73	0x3dd059ed	0.10173402
74	0x3e39cf66	0.18145522
75	0x3e0a94af	0.13533281
76	0xbf5cbbf8	-0.8622432
77	0xbeae8268	-0.34083867
78	0xbdbe28fe	-0.092851624
79	0xbe6f2daa	-0.23357263
80	0x3ed0641f	0.40701386
81	0xbe1d2cc7	-0.15349112
82	0x3caf3a17	0.021390004
83	0xbd3f9f74	-0.046782926
84	0xbcc87475	-0.024469594
85	0xbeab0ea0	-0.33409595
86	0x3e031cda	0.12803975
87	0x3ed40276	0.41408128
88	0xbe18c336	-0.14918217
89	0x3e8f0c2e	0.2793898
90	0xbbd4b1e8	-0.0064909346
91	0xbec4f019	-0.3846443
92	0xbf210c96	-0.6290983
93	0x3e414f86	0.18877992
94	0xbeda554b	-0.42643198
95	0xbe5d7a78	-0.2162875
96	0xbe7bf843	-0.24606423
97	0xbd20ed9f	-0.039289113
98	0x3e072b47	0.13200103
99	0x3d0e7266	0.034777068
100	0x3de2b1fc	0.11069104
101	0x3e65a90c	0.22427768
102	0x3eb53da6	0.35398597
103	0xbeae560b	-0.3405002
104	0xbc0d96a1	-0.00864187
105	0xbe910a25	-0.28328052
106	0x3e96068c	0.2930187
107	0x3dc374d8	0.095437706
108	0xbe8615d6	-0.26188534
109	0x3e32c92d	0.17459555
110	0x3ec5c606	0.38627642
111	0x3ea11672	0.31462437
112	0x3e0c6dcb	0.13713758
113	0xbde1ef91	-0.11032022
114	0x3df84fa5	0.12124566
115	0xbd9c56e6	-0.07633762
116	0x3eb4605d	0.3522977
117	0x3e8579b8	0.26069427
118	0xbe84d5a2	-0.2594424
119	0xbf4cc9ab	-0.7999522
120	0x3e7706f0	0.2412374
121	0x3f87d5d5	1.0612131
122	0x3e1aeb59	0.1512884
123	0x3eafd077	0.34338734
124	0xbc2d012b	-0.0105593605
125	0xbdcf3b53	-0.10118737
126	0xbe5fa21d	-0.21839185
127	0x3e5e1584	0.21687895
128	0xbe901704	-0.2814256
129	0x3cf9c6f2	0.030490372
130	0xbd9bca17	-0.07606905
131	0xbe527b16	-0.20554766
132	0xbb4b6a1c	-0.0031038588
133	0xbf3f1935	-0.7464784
134	0x3e7f0a3f	0.24906252
135	0xbe628278	-0.22120082
136	0xbdf4e976	-0.11958592
137	0xbea48963	-0.32136068
138	0x3c85260d	0.016253496
139	0xbedb345b	-0.42813382
140	0xbe6a57d4	-0.22885066
141	0xbd82a6d0	-0.06379473
142	0x3e01fd72	0.12694338
143	0xbbef92b6	-0.0073111905
144	0x3e07a3b9	0.13246049
145	0xbe5e7fba	-0.21728411
146	0xbedbf5ec	-0.4296106
147	0xbe8e7cda	-0.2782963
148	0x3d19dbaa	0.037563004
149	0x3dc1ebb2	0.094687834
150	0xbe933d4d	-0.28757706
151	0xbcd663f5	-0.02617071
152	0x3e171465	0.14753874
153	0x3ca555a1	0.020182433
154	0xbdbbfdb7	-0.09179252
155	0x3e958034	0.29199374
156	0xbe8e238a	-0.2776149
157	0xbed8beca	-0.4233306
158	0xbe814217	-0.25245735
159	0xbdb27830	-0.0871433
160	0xbed030a2	-0.40662104
161	0xbf2ef6a9	-0.68345124
162	0xbec25e8d	-0.37962762
163	0xbf3f0f28	-0.746325
164	0x3c7bdd2b	0.015372555
165	0xbd58acf5	-0.05289932
166	0x3e1362b6	0.14393124
167	0xbea25153	-0.3170267
168	0xbe99cb07	-0.3003771
169	0xbedb467b	-0.4282721
170	0x3de2906b	0.11062702
171	0xbf5589ac	-0.83413196
172	0xbeae6037	-0.3405778
173	0xbd38e89b	-0.045143705
174	0xbf047d74	-0.51753926
175	0xbe321edc	-0.17394584
176	0xbe05cb95	-0.13065942
177	0x3d371368	0.04469624
178	0xbeb7d6a7	-0.35905954
179	0xbebe03dd	-0.37112322
180	0xbe828d1c	-0.25498283
181	0xbe8b0581	-0.27152637
182	0xbeac49dc	-0.336501
183	0xbddead2a	-0.10872872
184	0xbb819857	-0.003954928
185	0xbe9a53ce	-0.30142063
186	0xbd765ec7	-0.06014898
187	0x3e43b377	0.19111429
188	0xbe9273ac	-0.28603876
189	0xbf2fc58a	-0.68660796
190	0xbe9b5bbf	-0.30343434
191	0xbdfa3c19	-0.12218494
192	0xbf3acf1f	-0.7297229
193	0x3daa8b70	0.08327377
194	0xbfb3c921	-1.4045755
195	0xbd0dc90d	-0.034615565
196	0xbe19788f	-0.14987396
197	0xbda727c9	-0.08161885
198	0x3d87bb61	0.066275366
199	0xbc790277	-0.015198342
200	0xbdcb6d7d	-0.099329926
201	0x3d803bee	0.06261431
202	0x3da2be45	0.07946447
203	0xbf097563	-0.5369474
204	0xbe4d884d	-0.20071526
205	0xbd6b8405	-0.05749895
206	0x3dfb9530	0.12284315
207	0x3e4cff98	0.20019376
208	0x3cb091e6	0.021553945
209	0xbc6fcce2	-0.01463625
210	0xbe092dc8	-0.1339637
211	0xbd525ce4	-0.05135812
212	0x3dff6b57	0.12471645
213	0x3e70b901	0.23508073
214	0x3d740433	0.059574317
215	0x3e2a2b06	0.16617975
216	0xbd6cb4f6	-0.057789765
217	0xbeb3d4f3	-0.35123405
218	0xbe71d6b8	-0.23617065
219	0x3e35c7cc	0.17751998
220	0xbe6c561b	-0.23079722
221	0x3d8756e6	0.066083714
222	0xbe55cb56	-0.20878348
223	0x3e36fb10	0.1786921
224	0xbfc1ec49	-1.5150234
225	0x3ca087fd	0.019596094
226	0xbafa89bd	-0.0019114536
227	0xbecc0cbf	-0.39853474
228	0xbd6db987	-0.05803826
229	0xbdefcb51	-0.117087014
230	0xbf281632	-0.6565887
231	0xbe3a27e8	-0.18179286
232	0xbe2b9dce	-0.16759416
233	0xbef16997	-0.4715087
234	0x3e9e119a	0.30872804
235	0xbecdbbe1	-0.40182403
236	0xbe93860a	-0.288132
237	0xbc809b10	-0.01569894
238	0x3d39c59f	0.04535448
239	0xbd35a140	-0.044343233
240	0xbdeb63b8	-0.11493629
241	0xbf239824	-0.63904023
242	0x3f54383b	0.828983
243	0xbf1657e3	-0.58727854
244	0x3dde6186	0.10858445
245	0x3db77067	0.08956986
246	0xbf35eb89	-0.71062523
247	0xbd43be1e	-0.04778873
248	0xbeea053f	-0.45707127
249	0xbfb64ce9	-1.4242221
250	0x3e924f8a	0.28576308
251	0x3e250722	0.16116002
252	0xbe1f6253	-0.15564851
253	0xbd5a6185	-0.053315658
254	0xbf046e51	-0.5173083
255	0xbf01009b	-0.5039155

model.0.fc2.bias f4 [32]
0	0xbea383bd	-0.31936446
1	0xbd5bfd82	-0.05370856
2	0xbae44826	-0.0017416521
3	0xbde42653	-0.11140122
4	0xbe280652	-0.16408661
5	0x3d8ef163	0.069796346
6	0xbe1742df	-0.14771603
7	0xbe4a2db7	-0.19744001
8	0xbdfcaa8d	-0.123372175
9	0xbd02bdfd	-0.03191947
10	0xbdfdc0bb	-0.12390276
11	0x3cc885f0	0.024477929
12	0xbdf5100a	-0.1196595
13	0xbe579b9a	-0.21055451
14	0x3d89ce52	0.067288056
15	0xbe8905ff	-0.26762387
16	0x3e10dfc5	0.14147861
17	0x3dd196be	0.1023383
18	0xbd7d6875	-0.061867196
19	0xbd74bd15	-0.059750635
20	0xbd0bdaca	-0.0341442
21	0xbe12a8d9	-0.14322223
22	0x3eaac4c4	0.33353245
23	0xbe439d60	-0.19103003
24	0xbd43cd2b	-0.047803085
25	0xbcae4572	-0.021273348
26	0xbe02befd	-0.12768169
27	0xbc77f643	-0.015134397
28	0xbe0e281c	-0.13882488
29	0xbe442f52	-0.19158676
30	0xbe858123	-0.26075086
31	0xbdb52bc8	-0.08846241

model.0.fc_residual.weight f4 [32, 5]
0	0x3e119cb3	0.14219932
1	0x3df53c39	0.11974377
2	0x3d38d42b	0.045124214
3	0xbe4b32ac	-0.19843549
4	0x3ba6c081	0.005088866
5	0xbf25e261	-0.6479855
6	0x3efb0444	0.49026692
7	0xbe62124e	-0.22077295
8	0x3e3b4eea	0.18291822
9	0x3e706bcd	0.23478623
10	0x3dae615d	0.08514664
11	0xbd86b1a3	-0.0657685
12	0xbdebf2aa	-0.11520894
13	0xba6bc1e1	-0.0008993429
14	0x3e743e56	0.23851904
15	0xbedddd1f	-0.43332765
16	0xbf2823d1	-0.6567965
17	0x3eeb1da3	0.4592105
18	0x3d8417f8	0.06449884
19	0xbf0b1842	-0.5433389
20	0x3f299c08	0.6625371
21	0xbdce475b	-0.10072204
22	0x3d9794b6	0.07401411
23	0x3e8e77f4	0.27825892
24	0xbed6a108	-0.41919732
25	0xbf0ada23	-0.542391
26	0x3e69e59a	0.22841492
27	0x3e95b39d	0.29238597
28	0xbe8b6f2f	-0.27233264
29	0xbf87649d	-1.057758
30	0x3f383ea3	0.71970576
31	0xbdf34beb	-0.118797146
32	0xbe6fd406	-0.23420724
33	0xbd806569	-0.062693425
34	0x3e520fb6	0.20513806
35	0xbce43274	-0.02785609
36	0xbcd5c68f	-0.026095657
37	0xbef1b026	-0.47204703
38	0xbe0f7b68	-0.1401192
39	0x3e6b18ee	0.22958729
40	0xbf10da92	-0.5658351
41	0x3ea0f802	0.31439215
42	0x3e422212	0.1895831
43	0x3e6f97b3	0.23397712
44	0xbe76eca6	-0.24113712
45	0x3e71aed8	0.23601854
46	0xbe18573e	-0.1487703
47	0x3e714e8b	0.23565118
48	0x3e8d0e77	0.27550098
49	0x3f08e972	0.5348121
50	0xbf0958a6	-0.5365089
51	0x3de69505	0.11258892
52	0xbdf63f3b	-0.12023779
53	0xbe3f8e9a	-0.18706742
54	0x3d8308da	0.06398173
55	0xbde1c742	-0.110243335
56	0x3e64c014	0.22338897
57	0x3e98ffa2	0.29882532
58	0x3e95ee8c	0.2928356
59	0x3e8c60b2	0.27417523
60	0xbec9ef38	-0.39440322
61	0xbcd22c42	-0.02565587
62	0x3ef73bdf	0.48287866
63	0x3e3886cd	0.18020172
64	0xbf11c862	-0.56946385
65	0xbf3ea0be	-0.74464023
66	0x3e90e3d0	0.28298807
67	0x3e37cfab	0.17950313
68	0x3eabc18c	0.33546102
69	0x3e1d81bd	0.15381522
70	0xbe9d147f	-0.306797
71	0x3dc6fa7c	0.09715745
72	0xbe89fa6c	-0.2694887
73	0xbebbbe28	-0.36668515
74	0x3e75b55d	0.23994966
75	0x3ccdc266	0.02511711
76	0x3deb1ec4	0.114804775
77	0xbdf9854e	-0.12183629
78	0xbe528e3e	-0.20562074
79	0xbde8bfaa	-0.11364682
80	0x3e5b1c64	0.21397549
81	0xbe67fe99	-0.22655715
82	0x3f044ed7	0.516828
83	0x3e289dcc	0.16466445
84	0xbeffc24b	-0.4995292
85	0xbeb03033	-0.34411773
86	0xbe254957	-0.16141258
87	0x3d4b1fd8	0.049590915
88	0x3e72ad6b	0.23698966
89	0xbe5030b7	-0.20331083
90	0x3f3cf94d	0.738179
91	0x3e206159	0.15662135
92	0x3e3b3136	0.18280491
93	0xbea74761	-0.32671645
94	0x3e76322b	0.24042575
95	0xbe570c3a	-0.21000758
96	0xbeb48d30	-0.35263968
97	0x3ed18794	0.4092375
98	0x3e7c50ce	0.246402
99	0xbecbc9e3	-0.39802465
100	0x3f2f66a8	0.68516016
101	0xbe2b38de	-0.16720912
102	0x3e92341f	0.2855539
103	0xbdaf29b9	-0.0855288
104	0xbe550ae5	-0.20804937
105	0x3f1f7a00	0.6229553
106	0xbeb22161	-0.3479109
107	0xbf0b61ea	-0.5444628
108	0xbdf6d930	-0.12053144
109	0xbec8110f	-0.39075515
110	0x3e79c5a3	0.24391799
111	0x3f159192	0.5842525
112	0x3edda278	0.43288016
113	0x3d495c67	0.049160387
114	0xbec689d4	-0.3877703
115	0x3d3e5422	0.046466954
116	0xbedf8ff3	-0.43664512
117	0xbe04e440	-0.12977695
118	0xbe9bb7f9	-0.30413797
119	0x3dc60168	0.09668237
120	0xbf0c3393	-0.54766196
121	0xbb7e7cdf	-0.0038831753
122	0xbe1e4278	-0.15455043
123	0xbc824efe	-0.015906807
124	0xbdb8d1fd	-0.09024427
125	0xbe504bf1	-0.2034147
126	0xbe824a88	-0.25447488
127	0xbd785571	-0.06062836
128	0x3e999414	0.29995787
129	0x3d6d9c1e	0.058010213
130	0xbed870f4	-0.42273676
131	0x3e077cb1	0.1323116
132	0x3f290967	0.6602997
133	0xbe8c16cf	-0.27361152
134	0xbe9711ff	-0.29505917
135	0xbd0241ec	-0.03180115
136	0x3e1cc03b	0.15307705
137	0x3f1df7bf	0.61706156
138	0xbd2a78fb	-0.041619282
139	0xbef6e4a4	-0.48221314
140	0x3d774f66	0.060378455
141	0xbe8c8823	-0.27447614
142	0xbdeaf0d4	-0.114717156
143	0xbe0ece12	-0.13945797
144	0x3d8cb8e1	0.068712
145	0x3e998620	0.29985142
146	0x3e030a64	0.12796932
147	0xbf10da63	-0.5658323
148	0x3e75e2f9	0.24012364
149	0x3ebd8d61	0.37021926
150	0xbf096594	-0.5367062
151	0xbec6c786	-0.388241
152	0x3e86d913	0.2633749
153	0x3e99e418	0.30056834
154	0x3eccd337	0.40004894
155	0xbf5cf96f	-0.86318105
156	0x3e456cea	0.19279829
157	0xbe48d1ba	-0.19611254
158	0x3d945a39	0.07243771
159	0x3e65aa72	0.22428301

model.0.fc_residual.bias f4 [32]
0	0x3e8f01a3	0.27930936
1	0x3d8b2864	0.06794813
2	0x3e4a491e	0.19754454
3	0xbe4b0759	-0.19827022
4	0x3ea2ccdb	0.31796917
5	0xbef2b69b	-0.47404942
6	0x3e40a437	0.18812643
7	0xbd835d99	-0.06414337
8	0x3d552f89	0.052047286
9	0xbeec8d7c	-0.46201694
10	0xbe4e846b	-0.20167701
11	0xbe06dd4c	-0.13170356
12	0x3eab1a4f	0.3341851
13	0xbd511ef1	-0.0510549
14	0xbe1ca996	-0.15299067
15	0x3e83e259	0.25758627
16	0x3e8f33a0	0.27969074
17	0x3eb6575d	0.35613528
18	0xbef6f089	-0.4823039
19	0x3ed509db	0.41609082
20	0xbe17ff3c	-0.14843458
21	0x3d3a14cb	0.045429986
22	0xbde6e828	-0.11274749
23	0x3e0fb93a	0.14035502
24	0xbda7c60d	-0.08192072
25	0x3eb50999	0.35358885
26	0x3e405f36	0.1878632
27	0x3e83b535	0.25724187
28	0xbe3682d6	-0.17823347
29	0xbee040c1	-0.43799403
30	0xbee4c461	-0.44681075
31	0x3e2e568d	0.17025204

model.1.fc1.weight f4 [16, 32]
0	0x3d0b6373	0.03403039
1	0xbc8b317e	-0.016991373
2	0xbdff5015	-0.12466446
3	0xbdfbc649	-0.12293679
4	0x3d86597c	0.065600365
5	0xbc90c081	-0.017669918
6	0xbec17e62	-0.37791735
7	0xbe30725e	-0.17231128
8	0xbe8b0f65	-0.27160183
9	0xbddc9c8b	-0.10772046
10	0xbebd80bf	-0.37012288
11	0xbeacc062	-0.33740526
12	0x3e21da0c	0.15805835
13	0x3e0f9e14	0.14025146
14	0x3cea7375	0.028619507
15	0xbe59f3b3	-0.2128437
16	0xbdfad6df	-0.12248015
17	0xbeca03ec	-0.39456117
18	0x3eb91c79	0.36154535
19	0xbd025ea0	-0.031828523
20	0xbd3fa389	-0.04678682
21	0xbe1ce0e6	-0.15320167
22	0x3d94dfae	0.07269226
23	0x3d98bdab	0.07458051
24	0x3dd1089e	0.10206722
25	0xbe19f4c5	-0.15034778
26	0x3da7c9a9	0.081927605
27	0xbe1e0b69	-0.1543404
28	0x3e373cad	0.1789424
29	0x3e2eebe6	0.17082176
30	0xbe3f67fd	-0.18692012
31	0xbdf9351a	-0.121683314
32	0xbdab9f13	-0.083799504
33	0x3d8f340e	0.069923505
34	0x3e06c363	0.13160472
35	0xbe5624f7	-0.20912538
36	0xbfa7305d	-1.3061634
37	0xbf6d0616	-0.9258741
38	0x3eca655e	0.39530462
39	0x3f0e3f97	0.5556578
40	0xbfa412fa	-1.2818291
41	0xbf54e270	-0.83158016
42	0xbed3213f	-0.41236302
43	0x3d553d03	0.05206014
44	0xbf797f9b	-0.97460335
45	0xbee638ba	-0.44965154
46	0xbbbce195	-0.005764196
47	0x3e64c225	0.22339685
48	0x3c9dc10d	0.019257093
49	0xbe4d8ee8	-0.20074046
50	0xbed22ff6	-0.41052216
51	0xbf462fd7	-0.7741675
52	0xbec4829b	-0.38380894
53	0x3fa93fbd	1.3222576
54	0xbf602576	-0.8755716
55	0x3bf21ba0	0.007388547
56	0xbe9be8d4	-0.3045107
57	0xbe1a9a51	-0.1509793
58	0x3e22d935	0.1590317
59	0x3e8a7bef	0.2704768
60	0xbe48e1fd	-0.19617458
61	0xbf742b0e	-0.95378196
62	0xbd27ac22	-0.040935643
63	0xbdc60a4e	-0.09669934
64	0xbc196aec	-0.009363871
65	0x3e0ea5ca	0.13930431
66	0xbf167e1f	-0.58786196
67	0xbe228432	-0.15870741
68	0x3d9e88a0	0.07740903
69	0xbdd65a62	-0.10466458
70	0xbdececcf	-0.11568605
71	0xbe2ecf95	-0.17071374
72	0x3e4186c6	0.18899068
73	0x3e2e6376	0.17030129
74	0x3e2b2e2f	0.16716836
75	0x3d30692a	0.043069042
76	0x3d0b79bd	0.034051646
77	0xbc5a5133	-0.013325023
78	0xbeeb2d05	-0.45932785
79	0xbeb7a21e	-0.35865873
80	0xbe8e42e8	-0.2778542
81	0xbda70bc9	-0.08156545
82	0xbeb50cec	-0.3536142
83	0xbebc2eba	-0.367544
84	0xbe9f7e28	-0.31150937
85	0xbe9a0852	-0.30084473
86	0xbe80ed52	-0.2518106
87	0x3e31b974	0.17355901
88	0x3da60dbe	0.0810809
89	0xbeb130be	-0.346075
90	0xbeca6bdc	-0.39535415
91	0xbe2de653	-0.16982393
92	0xbed64ac3	-0.41853914
93	0x3e89499c	0.26813972
94	0xbeec9e09	-0.4621432
95	0x3d86fef5	0.06591598
96	0xbd1f26b5	-0.038855273
97	0x3db508a2	0.08839537
98	0xbd93ce8f	-0.07217132
99	0xbe4e1219	-0.20124091
100	0x3e95d6b3	0.29265365
101	0xbe4234f5	-0.18965514
102	0xbdfb21fa	-0.1226234
103	0x3ee3a2e0	0.444602
104	0x3d9b19b6	0.07573263
105	0xbe661f02	-0.22472766
106	0xbec70de0	-0.38877773
107	0xbf013c59	-0.5048271
108	0xbdfe3726	-0.124128625
109	0xbf8cdc38	-1.1004705
110	0x3da7409e	0.081666216
111	0xbdc9b45b	-0.09848853
112	0xbee9e7f4	-0.4568478
113	0x3c034dc8	0.00801415
114	0x3e8b391b	0.27192006
115	0xbde58c19	-0.11208362
116	0x3ed62228	0.41822934
117	0x3ebca44b	0.36844096
118	0xbf84df67	-1.0380677
119	0x3ec8a719	0.39189985
120	0x3e53e397	0.20692287
121	0xbf11c3b2	-0.5693923
122	0xbe21e520	-0.1581006
123	0xbe790895	-0.2431968
124	0xbe722622	-0.23647359
125	0xbdd7dd8e	-0.10540305
126	0xbc7d7ca3	-0.01547161
127	0xbe3d75f7	-0.18502031
128	0x3c360a17	0.011110804
129	0xbd87efac	-0.06637511
130	0xbeb8f38e	-0.36123317
131	0xbec6810d	-0.38770333
132	0xbe0d8bde	-0.13822886
133	0x3eb2c1ec	0.34913576
134	0x3e1bedf3	0.15227489
135	0x3e5b41ae	0.21411774
136	0x3e24f06d	0.1610734
137	0x3dadce2a	0.08486588
138	0xbe7430cb	-0.23846738
139	0xbd0062b7	-0.03134414
140	0xbec11e49	-0.37718418
141	0xbdba164d	-0.09086285
142	0x3e1e879f	0.15481423
143	0xbe87edf3	-0.26548728
144	0xbe4e55e6	-0.20149955
145	0x3db505ba	0.08838983
146	0x3d6a9d27	0.05727878
147	0x3e21e26e	0.15809032
148	0xbe65e548	-0.22450745
149	0x3e602e8a	0.21892753
150	0xbe50789d	-0.2035851
151	0x3e29a0f1	0.165653
152	0xbdf76172	-0.12079133
153	0xbe9d152d	-0.30680218
154	0xbe21dc51	-0.158067
155	0x3e69c24f	0.22828029
156	0xbe0554e6	-0.13020667
157	0xbeb840af	-0.3598685
158	0x3c5d4293	0.013504642
159	0xbef6524b	-0.4810966
160	0x3e9b5e01	0.30345157
161	0xbe8aec42	-0.27133375
162	0x3e851357	0.25991318
163	0xbf26f58f	-0.6521844
164	0xbdb1c9e3	-0.08681085
165	0x3bef7cdc	0.0073085856
166	0x3e8f3d83	0.27976617
167	0x3e534b3e	0.20634171
168	0xbfae4ac6	-1.3616569
169	0xbf15b743	-0.5848276
170	0xbe08a484	-0.13344008
171	0x3e26fbc2	0.16306975
172	0xbfa317ca	-1.2741635
173	0xbf1496c4	-0.5804255
174	0xbeb81ac7	-0.3595793
175	0x3e6be78f	0.23037551
176	0xbec3d2dc	-0.3824681
177	0x3d4aa3a0	0.04947245
178	0xbe2a8c6f	-0.16655134
179	0xbf0dbfae	-0.55370605
180	0x3e8b0be4	0.2715751
181	0x3edb1147	0.4278662
182	0xbf4c6112	-0.7983562
183	0xbdf80825	-0.121109284
184	0xbf21d1e2	-0.6321088
185	0xbe1f0c25	-0.15531977
186	0x3e6a0ef2	0.22857264
187	0x3ee30397	0.44338676
188	0xbe3f3a86	-0.18674669
189	0xbf0cc384	-0.54985833
190	0xbe59dc48	-0.21275437
191	0x3e8e7f10	0.27831316
192	0xbe9c854b	-0.30570444
193	0x3e5f605a	0.21814099
194	0xbde69dca	-0.112605646
195	0xbf0b4355	-0.54399616
196	0xbcd55e4f	-0.026045946
197	0xbe44fed8	-0.1923784
198	0xbe365fe3	-0.17810015
199	0xbb0e1f89	-0.0021686277
200	0xbe185864	-0.14877468
201	0xbdfb2540	-0.12262964
202	0xbb9dc7b6	-0.004815067
203	0x3e8f4469	0.2798188
204	0x3e8ec25f	0.27882668
205	0xbe36b24c	-0.17841452
206	0xbe1ac648	-0.15114701
207	0x3d97ff4d	0.07421742
208	0x3df63b76	0.1202306
209	0xbe5bb75c	-0.21456665
210	0x3de8f3ff	0.113746636
211	0xbe2765bc	-0.16347402
212	0xbe9806ae	-0.29692596
213	0x3e07284e	0.13198969
214	0xbeaca881	-0.33722308
215	0xbde8c573	-0.113657854
216	0x3c545906	0.012960678
217	0xbe926d2f	-0.28598925
218	0x3d439df5	0.04775806
219	0xbe461607	-0.1934434
220	0x3dbf8d7f	0.0935316
221	0x3e1607f6	0.14651474
222	0xbe22d3bc	-0.15901083
223	0xbe928560	-0.28617382
224	0xbc82e199	-0.015976714
225	0x3e0f8b2b	0.14017932
226	0xbdac31a0	-0.08407903
227	0xbf78ce13	-0.97189444
228	0xbddc5634	-0.107586294
229	0xbf32d903	-0.69862384
230	0x3e902da7	0.2815983
231	0x3e56e21f	0.20984696
232	0xbf387e56	-0.72067773
233	0xbf18e0e3	-0.5971815
234	0xbe01f16e	-0.12689754
235	0x3e99d3af	0.30044314
236	0xbe7b670f	-0.24551032
237	0xbdc11002	-0.094268814
238	0xbde71895	-0.112839855
239	0x3bb04190	0.0053789094
240	0xbf0b9499	-0.5452362
241	0x3dba17ca	0.09086569
242	0xbe8b497e	-0.27204508
243	0xbf627d9a	-0.884729
244	0xbe2a458e	-0.16628096
245	0x3f38568f	0.7200708
246	0xbf6c7811	-0.92370707
247	0xbebe8f55	-0.3721873
248	0xbebfa979	-0.37433985
249	0x3da635ee	0.08115755
250	0xbeec0931	-0.46100762
251	0x3e977e3b	0.29588494
252	0xbdb33ba0	-0.08751607
253	0xbf50f9e7	-0.8163132
254	0xbe317e90	-0.17333436
255	0xbe704043	-0.23462014

model.1.fc1.bias f4 [16]
0	0xbde00ae3	-0.109395765
1	0x3d29b6da	0.041434146
2	0xbe88837d	-0.26662818
3	0x3e32939d	0.17439122
4	0xbe2eb52b	-0.17061298
5	0x3d760b43	0.060069334
6	0xbdc5bcd0	-0.09655154
7	0x3e31a6a2	0.17348722
8	0x3e64ccac	0.22343701
9	0x3dd367d2	0.103225365
10	0x3e508913	0.2036479
11	0xbe8f3917	-0.27973244
12	0x3e91427c	0.28371036
13	0xbe76c14c	-0.24097174
14	0xbea62584	-0.32450497
15	0x3cad32e1	0.021142425

model.1.fc2.weight f4 [16, 16]
0	0xbea59599	-0.32340696
1	0x3e65a272	0.22425249
2	0xbe07fbcb	-0.13279645
3	0xbec6986a	-0.38788158
4	0x3e809dbf	0.2512035
5	0xbed9a656	-0.42509717
6	0xbe222e02	-0.15837863
7	0x3e5e8761	0.2173133
8	0xbe872a70	-0.26399565
9	0xbda7c50b	-0.0819188
10	0xbe119cff	-0.14220046
11	0xbee0a9db	-0.4387959
12	0xbe7f82cc	-0.24952239
13	0xbec995df	-0.39372155
14	0x3e187f29	0.14892258
15	0x3eb87b13	0.36031398
16	0xbed346b3	-0.41264877
17	0x3f581ea3	0.8442175
18	0x3eb1d235	0.34730688
19	0x3e12e0e6	0.14343604
20	0xbeb1a7f6	-0.34698457
21	0x3e39a5d0	0.18129659
22	0xbe802085	-0.2502481
23	0x3f23c94f	0.6397905
24	0xbeb09a45	-0.34492698
25	0xbe2a42a7	-0.16626988
26	0x3efc41b2	0.49268872
27	0xbee4cfda	-0.44689828
28	0x3e8ef173	0.27918586
29	0xbec340a8	-0.38135266
30	0xbe97be6b	-0.29637465
31	0x3edabc5e	0.42721838
32	0x3e400226	0.1875082
33	0xbedb4e88	-0.42833352
34	0xbdc1639d	-0.09442828
35	0xbe1dffef	-0.15429662
36	0xbcb54fa1	-0.022132697
37	0x3cc9bd58	0.024626419
38	0xbeb796b4	-0.35857165
39	0xbe901ff4	-0.28149378
40	0x3e15ef82	0.14642146
41	0xbe9a19f9	-0.3009794
42	0xbea63b40	-0.3246708
43	0x3d148369	0.036258135
44	0xbf168449	-0.587956
45	0x3d8f6038	0.07000774
46	0xbec8aa2b	-0.39192328
47	0xbe8f1c87	-0.27951452
48	0x3db15fd8	0.08660859
49	0x3e615e65	0.22008665
50	0xbe577063	-0.21038966
51	0x3e48fd37	0.19627844
52	0xbe42d7e2	-0.19027665
53	0x3f15fd79	0.58589894
54	0x3e36ab5b	0.17838804
55	0xbf198edc	-0.5998361
56	0x3f0c55e8	0.5481858
57	0xbe14f8f2	-0.1454809
58	0x3dac1c97	0.084038906
59	0x3dd8244c	0.10553798
60	0x3dd6026a	0.10449679
61	0x3e367b1d	0.17820401
62	0xbe976a4e	-0.29573292
63	0xbe3bee75	-0.18352683
64	0x3e4b91fb	0.19879906
65	0xbf8a98aa	-1.0827839
66	0xbd6b786e	-0.057487898
67	0xbe3091d4	-0.17243129
68	0xbc206b9e	-0.009791283
69	0xbf894c27	-1.0726365
70	0x3c63d9ab	0.013906877
71	0xbfb140cb	-1.3847898
72	0xbf6c94f0	-0.9241476
73	0x3eaa3777	0.3324544
74	0xbeb06d60	-0.34458447
75	0x3e80896e	0.2510485
76	0xbfa48ed8	-1.2856092
77	0xbdb7d3ad	-0.08975921
78	0x3de0738a	0.10959537
79	0xbf3616d3	-0.71128577
80	0xbe06c890	-0.13162446
81	0xbee2411e	-0.44190305
82	0x3e033f9a	0.12817231
83	0x3d83e15d	0.06439469
84	0x3eafeee1	0.34361938
85	0xbf563e21	-0.8368855
86	0xbe35669f	-0.17714928
87	0xbee3c1e2	-0.44483858
88	0xbe74f302	-0.23920825
89	0xbd99a441	-0.07502032
90	0xbddca80a	-0.107742384
91	0x3e95eddc	0.29283035
92	0xbefc9cbf	-0.49338338
93	0x3e362a5d	0.17789598
94	0xbcc906a3	-0.024539297
95	0xbe4a3934	-0.19748384
96	0x3e5ce721	0.21572544
97	0x3fa1075c	1.2580371
98	0x3eb1b84b	0.34710917
99	0x3e35b2a0	0.17743921
100	0xbe585632	-0.21126631
101	0x3eb804f8	0.3594129
102	0x3d270a16	0.040781103
103	0x3f220441	0.6328774
104	0x3e8d82b9	0.27638796
105	0x3e1d1d2f	0.15343164
106	0x3f2cebd0	0.6754732
107	0x3e99a2c6	0.30007
108	0x3f5eb344	0.8699229
109	0xbe8038ae	-0.25043243
110	0xbe9c16a6	-0.3048603
111	0xbecee08f	-0.404057
112	0xbe45ef52	-0.19329575
113	0x3e8b7d27	0.2724392
114	0x3e8c1f47	0.27367613
115	0x3e8106ac	0.25200403
116	0xbdb54d3f	-0.08852624
117	0xbd801a46	-0.06255011
118	0xbed2f2a4	-0.41200745
119	0xbee1ffb3	-0.44140396
120	0xbe97795e	-0.29584783
121	0xbe8b6451	-0.27224973
122	0xbf061a23	-0.5238363
123	0x3ebd9ba7	0.37032816
124	0x3dba10c2	0.090852275
125	0x3e9fc9b1	0.31208566
126	0x3de89619	0.11356754
127	0x3e223f28	0.15844405
128	0x3d62dc90	0.055386126
129	0xbf8ff06c	-1.1245246
130	0x3e82dde4	0.25559914
131	0x3e43ce9e	0.19121787
132	0xbeba7d60	-0.3642378
133	0xbec39165	-0.38196865
134	0xbdf9e649	-0.122021265
135	0xbf1c5fa5	-0.6108344
136	0xbf67e3c6	-0.9058193
137	0x3f0a6936	0.5406679
138	0x3d9450f9	0.07242007
139	0x3dd48dad	0.10378585
140	0xbf8319f1	-1.0242292
141	0x3e5a5ddc	0.21324867
142	0x3e89c12f	0.269052
143	0x3e82f56d	0.2557787
144	0xbef6a2af	-0.48170993
145	0x3ea8d453	0.3297449
146	0x3c8fcf07	0.017554773
147	0x3e84d0a5	0.25940433
148	0x3daf29a7	0.085528664
149	0x3e8300f5	0.25586668
150	0xbe269bf6	-0.16270432
151	0x3e813a22	0.25239664
152	0xbf1620d0	-0.5864382
153	0xbe6791e4	-0.22614247
154	0xbeb572fa	-0.35439283
155	0xbd2261ae	-0.039643936
156	0x3e97a5ac	0.29618585
157	0x3ea92825	0.3303844
158	0x3e71d035	0.23614581
159	0x3ea6d9d3	0.32588062
160	0x3cb8436e	0.02249309
161	0xbd31aa0d	-0.043375064
162	0xbe85817a	-0.26075345
163	0xbef03680	-0.4691658
164	0xbe8b385b	-0.27191433
165	0xbe949fcc	-0.29028165
166	0xbe9a154c	-0.30094373
167	0xbeb380da	-0.35059243
168	0xbf0c99bb	-0.54922074
169	0x3e82b4e9	0.25528648
170	0xbdf5283f	-0.11970567
171	0xbee1fc11	-0.44137624
172	0xbf834eb5	-1.0258394
173	0xbd91acaa	-0.07113011
174	0xbdcedb13	-0.10100379
175	0x3e892c7e	0.26791757
176	0x3e8890af	0.26672885
177	0x3fa5b53d	1.2945935
178	0xbe1ff588	-0.15621006
179	0xbe8728a9	-0.2639821
180	0x3e82680b	0.25470003
181	0x3ec5ef81	0.3865929
182	0x3e1b2b10	0.15153146
183	0x3fcc575b	1.5964159
184	0xbec73f25	-0.38915363
185	0xbf37a60f	-0.7173776
186	0xbec08c9c	-0.37607276
187	0xbe4e3805	-0.20138557
188	0x3f894631	1.0724546
189	0x3ee366be	0.44414324
190	0xbcf19ca4	-0.029493637
191	0xbed3dd6a	-0.41379863
192	0x3e0d96d3	0.13827066
193	0xbe0c0e3a	-0.13677302
194	0x3c109a22	0.008825811
195	0x3f658865	0.89661247
196	0x3e9e38cc	0.30902708
197	0x3ea0109f	0.3126268
198	0xbe1c2363	-0.15247874
199	0x3e9f4f9f	0.31115434
200	0x3ef63438	0.48086715
201	0x3f0f3009	0.5593267
202	0x3fd4e66d	1.663282
203	0xbec31d1f	-0.38108155
204	0x3d6a0ab7	0.057139125
205	0xbe890a4f	-0.26765677
206	0xbeac84a4	-0.33694947
207	0x3f42c99c	0.7608888
208	0x3d11d3a3	0.035602223
209	0xbd92a703	-0.07160761
210	0x3ed42d0b	0.41440615
211	0xbe6dc476	-0.23219475
212	0xbe8a2093	-0.26977977
213	0xbdf98734	-0.12183991
214	0x3cf13342	0.029443387
215	0x3ca75072	0.020424102
216	0xbe57cc67	-0.21074067
217	0xbe4b5e61	-0.19860221
218	0x3dbdd83e	0.092697605
219	0x3e88370d	0.266045
220	0x3d1b0531	0.037846748
221	0xbc9bd0ce	-0.019020464
222	0xbe8ce68e	-0.2751965
223	0xbccbf945	-0.024899134
224	0x3ebdb2d9	0.37050512
225	0x3d844bd7	0.06459778
226	0xbe927a05	-0.2860872
227	0x3dcb2667	0.09919434
228	0xbe7eefb4	-0.24896127
229	0xbeafbeec	-0.3432535
230	0xbc92511a	-0.017860938
231	0xbd0d031c	-0.034426793
232	0x3d481805	0.04885103
233	0xbb74d8fb	-0.0037360776
234	0x3ce9c734	0.02853737
235	0x3e9942e4	0.29933846
236	0xbe545b6f	-0.20738004
237	0x3eb71e13	0.35765132
238	0xbeaf829a	-0.3427933
239	0xbed4015f	-0.41407296
240	0xbeea3561	-0.4574385
241	0x3ea247a6	0.31695288
242	0xbe914ca3	-0.28378782
243	0x3d373d86	0.044736408
244	0xbe03e937	-0.12881933
245	0x3e96716e	0.29383415
246	0xbd97cefb	-0.07412525
247	0x3f793e01	0.97360235
248	0xbf1be645	-0.6089824
249	0xbeb44987	-0.35212347
250	0xbebd615a	-0.36988336
251	0xbd5ea0c3	-0.054352533
252	0x3f1b1ad3	0.60587806
253	0x3ed83b95	0.42232957
254	0x3e8fc1c6	0.28077525
255	0xbeafb024	-0.34314072

model.1.fc2.bias f4 [16]
0	0xbe804f5e	-0.25060552
1	0x3ee3d589	0.44498852
2	0xbe459a57	-0.19297157
3	0xbcdb61a8	-0.026779965
4	0x3e32f150	0.17474866
5	0x3d8261c4	0.063663036
6	0x3dd228f5	0.10261718
7	0xbf044b00	-0.5167694
8	0xbbdf2570	-0.006809883
9	0xbe4a1c0c	-0.19737262
10	0xbec22481	-0.37918475
11	0x3b5e47e4	0.0033917362
12	0x3e8ff335	0.2811524
13	0xbe1dfaa0	-0.15427637
14	0xbd12e62c	-0.03586404
15	0x3de28f04	0.11062434

model.1.fc_residual.weight f4 [16, 32]
0	0xbe6cf6d4	-0.23141032
1	0xbe6a0391	-0.22852923
2	0x3c9e4965	0.019322107
3	0x3da65419	0.08121509
4	0x3e596142	0.21228507
5	0x3d02b0c1	0.031906847
6	0xbe0e0abc	-0.13871282
7	0xbeb84fd6	-0.3599841
8	0xbdf88884	-0.12135413
9	0xbe4fc32c	-0.20289296
10	0x3dea1afe	0.114309296
11	0x3c4af372	0.012387143
12	0xbeae7a95	-0.34077898
13	0x3d8d0742	0.0688615
14	0x3d4605c8	0.048345357
15	0xbdd8a1e2	-0.10577752
16	0xbebdc964	-0.3706771
17	0xbd977d8f	-0.07396995
18	0x3e4f644e	0.20253107
19	0x3e3a740f	0.18208335
20	0x3da83c83	0.08214667
21	0xbe4da828	-0.20083678
22	0x3e09deb2	0.13463858
23	0xbc2860aa	-0.010276953
24	0x3e8be05e	0.27319616
25	0xbe820c8e	-0.25400203
26	0x3cf735b8	0.030176982
27	0xbdb54483	-0.08850958
28	0xbebf5b90	-0.37374544
29	0xbd473f42	-0.04864431
30	0x3e1beed1	0.1522782
31	0xbca49d49	-0.02009453
32	0xbe628599	-0.22121276
33	0x3e0b2b62	0.13590768
34	0xbcfcbf15	-0.030852834
35	0xbe190e02	-0.1494675
36	0xbe75c41f	-0.24000596
37	0xbd1e8694	-0.038702562
38	0x3da26f38	0.079313695
39	0x3e44537f	0.19172476
40	0xbd48851f	-0.04895508
41	0xbf017d05	-0.5058139
42	0x3d4fae47	0.050703313
43	0x3e30051f	0.17189454
44	0x3c3d660e	0.011559976
45	0xbe0c5ed4	-0.13708049
46	0xbe3481f1	-0.17627694
47	0x3de965ca	0.11396368
48	0xbd83c7d7	-0.06434601
49	0xbc91f500	-0.01781702
50	0xbe8fec9b	-0.28110203
51	0x3e93ce05	0.28868118
52	0xbd4b0ca2	-0.049572594
53	0x3e003376	0.12519631
54	0x3c40203e	0.011726437
55	0x3dcf429c	0.101201266
56	0xbde50b61	-0.11183811
57	0x3d226b3a	0.03965304
58	0xbdfdcc89	-0.123925276
59	0xbe0c2881	-0.13687326
60	0x3bf2bac5	0.0074075186
61	0xbe63b08e	-0.22235319
62	0x3e40e71b	0.1883816
63	0xbd76f588	-0.06029275
64	0x3e7df075	0.24798758
65	0xbe1df785	-0.15426452
66	0xbd9fa12e	-0.077944145
67	0xbf22d671	-0.6360846
68	0x3e579ffb	0.21057121
69	0xbd7c8a06	-0.061655067
70	0xbd134506	-0.035954498
71	0xbd57500e	-0.05256658
72	0x3dd48603	0.10377123
73	0x3d438c0f	0.047740992
74	0xbe4e1ca0	-0.20128107
75	0x3df63d1b	0.12023374
76	0x3e7167e1	0.23574783
77	0xbc4abacb	-0.0123736365
78	0xbe4d5f02	-0.20055774
79	0x3e10d274	0.14142781
80	0xbdd20d00	-0.10256386
81	0xbee73fce	-0.45165867
82	0x3ec8f364	0.39248192
83	0x3edd76f6	0.43254822
84	0x3e2d5756	0.16927847
85	0xbd666f8b	-0.05625872
86	0x3ea00a01	0.31257632
87	0x3e66ea1a	0.2255024
88	0x3f0c252d	0.54744226
89	0x3e894ea0	0.268178
90	0xbefe9554	-0.49723303
91	0xbeb8d527	-0.36100122
92	0xbf126c25	-0.57196265
93	0x3e03b979	0.12863721
94	0xbe3f6ff2	-0.18695047
95	0xbeb97762	-0.36223894
96	0x3d414002	0.047180183
97	0xbff19aca	-1.8875363
98	0x3d0afccc	0.033932492
99	0xbec1ca40	-0.37849617
100	0x3ee57454	0.44815314
101	0x3f62ad19	0.88545376
102	0xbd00fba6	-0.03148999
103	0xbe74e4bb	-0.23915379
104	0xbdcf9b83	-0.101370834
105	0x3d7393dc	0.05946718
106	0xbf75fb1d	-0.96086293
107	0xbd2c988b	-0.042137664
108	0xbe8138d9	-0.25238684
109	0xbe383593	-0.17989187
110	0xc03c9d61	-2.9471056
111	0xbe268134	-0.16260225
112	0x3ea2b201	0.3177643
113	0xbeb94804	-0.36187756
114	0x3eb4c166	0.353038
115	0x3d4c1394	0.04982336
116	0x3eb4d4ec	0.35318696
117	0x3d322698	0.043493837
118	0x3e492dd7	0.19646393
119	0xbe41f5a8	-0.18941367
120	0xbefc2428	-0.49246335
121	0xbdecdcb5	-0.11565534
122	0x3e9a10c0	0.30090904
123	0x3e3e722c	0.1859824
124	0xbd9ac697	-0.07557409
125	0x3cc6cf01	0.024268629
126	0xbf014173	-0.5049049
127	0xbfa49d38	-1.2860479
128	0x3e22cca4	0.15898377
129	0x3dfb162f	0.122600906
130	0x3e6fb368	0.23408282
131	0xbf71eb65	-0.9449981
132	0xbfbd4a49	-1.4788295
133	0xbf2b07e3	-0.6680891
134	0x3e4c0b87	0.19926272
135	0xbb907f82	-0.0044097314
136	0x3dc504ac	0.09620032
137	0x3eb22ab1	0.34798196
138	0x3dc886ba	0.09791322
139	0xbce4d9f9	-0.027935969
140	0xbe1d57f0	-0.15365577
141	0xbf0727ef	-0.5279531
142	0x3e963c3c	0.2934283
143	0x3e0d1e53	0.13781099
144	0xbfffcbbb	-1.9984049
145	0xbe73609d	-0.23767324
146	0x3e97aa06	0.29621905
147	0xbdead85e	-0.1146705
148	0xbfc9b895	-1.5759455
149	0xbfd54c3e	-1.6663892
150	0x3f84b945	1.036904
151	0x3a71f986	0.00092306023
152	0xbd84070a	-0.06446655
153	0xbd5b51fe	-0.05354499
154	0xc05e79e2	-3.4761891
155	0xc03b7285	-2.9288647
156	0x3d574f51	0.052565876
157	0x3f1e7bcb	0.61907643
158	0x3e314ed5	0.17315228
159	0xbef1ec43	-0.47250566
160	0x3e59b105	0.21258934
161	0x3ec093df	0.37612817
162	0xbed80b76	-0.42196244
163	0x3ed90b70	0.4239154
164	0xbf7e39e3	-0.9930708
165	0xbdab7a51	-0.083729394
166	0x3ea095e2	0.31364352
167	0x3efea250	0.4973321
168	0x3d0f69e3	0.03501309
169	0xbdedb95a	-0.11607619
170	0xbc92a0a0	-0.017898858
171	0xbe45b36d	-0.19306727
172	0x3e569eed	0.20959063
173	0x3e553c33	0.20823745
174	0x3d5fd746	0.05464866
175	0xbe2ee040	-0.17077732
176	0xbf361fc1	-0.711422
177	0x3d48d937	0.049035277
178	0x3e93e5b6	0.28886193
179	0xbf29bad3	-0.66300696
180	0xbed7c80f	-0.4214482
181	0xbe91731d	-0.28408137
182	0x3c592462	0.013253303
183	0x3e0f6709	0.14004149
184	0x3e5548d7	0.20828567
185	0x3e165cc6	0.14683828
186	0x3dfcfda6	0.12353067
187	0x3e941970	0.28925657
188	0xbe0f2ed5	-0.13982709
189	0xbfbb5388	-1.4634867
190	0x3e4b6d4d	0.19865914
191	0x3eac983a	0.3370989
192	0x3d19bcb1	0.037533466
193	0x3e8f9089	0.2803996
194	0x3dfd8580	0.12378979
195	0x3f23fdb4	0.64058995
196	0x3e113b01	0.14182664
197	0x3f18e124	0.5971854
198	0x3f1c667f	0.61093897
199	0x3ea34c96	0.31894368
200	0x3ec13e0e	0.37742656
201	0xbcaed3b8	-0.02134119
202	0x3dc58578	0.09644598
203	0x3e68e516	0.2274364
204	0x3d958701	0.073011406
205	0x3eb917c9	0.3615096
206	0xbdd7c0e6	-0.10534839
207	0x3e7d63cc	0.247451
208	0x3ec2c904	0.38043988
209	0x3e350bba	0.17680255
210	0x3ec203f1	0.37893632
211	0xbd55a321	-0.052157525
212	0x3da4321c	0.0801737
213	0x3e35aeb9	0.17742433
214	0xbed7f4eb	-0.42179045
215	0x3dbd963a	0.09257169
216	0xbc0f0831	-0.00872998
217	0xbe2a0134	-0.16602021
218	0xbdb691fe	-0.089145645
219	0xbce74c05	-0.028234491
220	0x3ea70029	0.3261731
221	0xbea20122	-0.3164149
222	0x3f051a95	0.51993686
223	0xbd0ba53b	-0.034093123
224	0x3d93c54f	0.07215368
225	0xbeae0523	-0.33988294
226	0xbeec836c	-0.46194017
227	0xbd7105f6	-0.058843575
228	0xbe431ed9	-0.19054736
229	0x3eee1c99	0.46506193
230	0xbdc48bd7	-0.09596985
231	0x3d43b4ad	0.047779728
232	0x3e44bb6b	0.1921212
233	0xbe451727	-0.19247113
234	0xbef71b91	-0.4826322
235	0x3c87501f	0.016517697
236	0x3e827437	0.2547929
237	0x3e1e57e4	0.15463215
238	0xbe634a9b	-0.22196428
239	0xbe800b9c	-0.25008857
240	0xbebf5755	-0.37371317
241	0xbcc41b53	-0.02393881
242	0x3d31c446	0.04340007
243	0x3e97374b	0.29534373
244	0xbebdb9cf	-0.37055823
245	0x3da16f49	0.07882554
246	0x3e1600f3	0.146488
247	0xbd86245f	-0.06549906
248	0x3eb09ce2	0.34494692
249	0xbe763cab	-0.2404658
250	0x3e9ec5ce	0.31010288
251	0x3e09e3dc	0.13465828
252	0xbdb9abbb	-0.09065958
253	0xbe7e76cb	-0.24850003
254	0x3db071d7	0.08615463
255	0xbeed2110	-0.46314287

model.1.fc_residual.bias f4 [16]
0	0xbe292249	-0.16516985
1	0x3eba034f	0.3633065
2	0xbe2fd11d	-0.17169614
3	0xbd79cdd3	-0.060987305
4	0xbd5ec919	-0.054391
5	0xbe847d14	-0.25876677
6	0xbd2f2975	-0.042764146
7	0xbe9ccd90	-0.30625582
8	0xbca96858	-0.020679638
9	0xbe403cbe	-0.18773171
10	0xbedb90a9	-0.42883804
11	0x3d05a298	0.032625765
12	0x3ec51421	0.3849192
13	0xbe32a3e0	-0.17445326
14	0xbdb22426	-0.08698301
15	0x3ddcd106	0.107820556

model.2.fc1.weight f4 [8, 16]
0	0xbee44134	-0.44580996
1	0xbe803597	-0.25040886
2	0x3e8172c9	0.25282887
3	0xbe874250	-0.2641778
4	0x3d82d76a	0.06388743
5	0xbe45c22b	-0.1931235
6	0xbe7e8e5f	-0.24858998
7	0x3e511190	0.20416856
8	0x3ec2d7fa	0.38055402
9	0xbd92b834	-0.0716404
10	0x3e509979	0.20371045
11	0x3e270405	0.16310127
12	0xbeaff2d4	-0.3436495
13	0x3ea926e9	0.330375
14	0x3ee7c9f8	0.45271277
15	0x3e7bbdbc	0.24584097
16	0x3dd7990a	0.10527237
17	0xbed00cd6	-0.40634793
18	0x3dd9b22f	0.10629689
19	0xbd4cca44	-0.049997583
20	0x3f13decb	0.5776183
21	0x3e4e8d36	0.20171055
22	0xbecc41eb	-0.3989404
23	0xbe907f56	-0.2822215
24	0x3e4976a4	0.19674164
25	0x3e9cf35a	0.30654413
26	0xbc539315	-0.012913485
27	0xbf47bb47	-0.7802014
28	0xbed5a0d1	-0.41724256
29	0x3daad800	0.0834198
30	0xbcd9b2c0	-0.026574492
31	0x3ebdb61a	0.37052995
32	0x3e8453dc	0.2584523
33	0x3e3cadc2	0.18425658
34	0xbdfc3090	-0.1231395
35	0xbf8592be	-1.0435407
36	0x3eaba0b4	0.33521044
37	0x3e9d155b	0.30680355
38	0xbeadc5ba	-0.33939916
39	0x3e9065e7	0.28202745
40	0xbf2d2c35	-0.6764558
41	0x3d9dc375	0.07703296
42	0x3eb4a16d	0.35279408
43	0xbf129cc4	-0.57270455
44	0x3e3ef86d	0.18649454
45	0x3ece71b8	0.40321136
46	0xbea13038	-0.314821
47	0xbf063dc1	-0.5243798
48	0x3d82b813	0.063827656
49	0xbf21d944	-0.63222146
50	0x3e9f0df7	0.31065342
51	0x3d0a612c	0.033784077
52	0xbeb537c7	-0.35394117
53	0x3ec3ce74	0.3824345
54	0xbdd252f0	-0.10269725
55	0xbe8b6990	-0.27228975
56	0x3ec4d046	0.3844015
57	0x3f3d3e35	0.73923045
58	0xbf6b3a09	-0.9188543
59	0x3e690eec	0.22759598
60	0x3ed66f53	0.4188181
61	0x3e921b44	0.28536427
62	0xbe8884a6	-0.26663703
63	0xbf469c7f	-0.77582544
64	0xbe0ad29a	-0.135569
65	0xbf3b4fdd	-0.73168737
66	0xbf072a4e	-0.52798927
67	0xbec52725	-0.38506427
68	0x3c44af3b	0.012004669
69	0xbe1453eb	-0.14485137
70	0x3d72bd37	0.05926248
71	0xbf15ac8f	-0.5846643
72	0xbe93e32f	-0.28884265
73	0xbbaeec54	-0.005338231
74	0x3df48684	0.11939719
75	0x3e3a3a40	0.18186283
76	0x3e1cbe61	0.15306999
77	0xbd793a33	-0.06084652
78	0x3ebfbb65	0.37447658
79	0xbee11aae	-0.43965667
80	0xbdd70cb0	-0.10500467
81	0xbee07408	-0.43838525
82	0x3e00bf90	0.12573075
83	0xbe9e12d5	-0.30873743
84	0xbe3a353b	-0.18184368
85	0xbc4fb1a5	-0.012676631
86	0xb9aa3509	-0.0003246444
87	0xbed4ea26	-0.4158489
88	0xbe5e2a1b	-0.2169575
89	0xbb5c8b0e	-0.003365222
90	0x3d19b1a3	0.037522923
91	0xbcdeef00	-0.027213573
92	0xbe2585c8	-0.16164315
93	0xbebb0a07	-0.36531088
94	0xbe95e546	-0.29276484
95	0xbdefd2f8	-0.11710161
96	0xbcb60a4b	-0.022221705
97	0xbda8f4bb	-0.08249804
98	0xbec947c5	-0.39312568
99	0xbd4b15fb	-0.04958151
100	0xbf373a55	-0.7157338
101	0x3d71b05d	0.059006084
102	0xbea8fb6f	-0.3300433
103	0x3e566b64	0.20939404
104	0x3ddc251c	0.107492656
105	0x3e666505	0.22499473
106	0x3d9205ae	0.071299896
107	0xbd48a9d4	-0.048990086
108	0xbf55e199	-0.8354736
109	0xbe8ef343	-0.2791997
110	0x3e24bde3	0.16088061
111	0x3e854cc1	0.2603512
112	0xbe791a72	-0.24326494
113	0xbe3741ab	-0.17896144
114	0x3e738844	0.2378245
115	0xbe09b0a0	-0.13446283
116	0x3f057175	0.52126247
117	0xbeb789a9	-0.35847214
118	0xbed53fb8	-0.41650176
119	0x3e92bdc7	0.28660414
120	0x3f144f4c	0.579335
121	0x3f0c13a1	0.5471745
122	0xbe39b260	-0.18134451
123	0xbed8cfc9	-0.42346027
124	0xbe63c974	-0.22244817
125	0xbe25baae	-0.16184494
126	0xbe45fa3c	-0.19333738
127	0x3ed427ed	0.4143671

model.2.fc1.bias f4 [8]
0	0xbe684f21	-0.22686435
1	0xbc87f4e6	-0.016596269
2	0xbe1462f9	-0.1449088
3	0xbd0bd2bb	-0.034136515
4	0xbed13504	-0.4086076
5	0xbdb0808a	-0.08618267
6	0x3dd5e705	0.10444454
7	0xbe5c4095	-0.21509011

model.2.fc2.weight f4 [8, 8]
0	0x3d6e4f2f	0.058180984
1	0xbd76e760	-0.06027925
2	0xbf002712	-0.50059617
3	0xbd758952	-0.059945412
4	0xbd9fb60c	-0.077983946
5	0x3db1327f	0.086522095
6	0x3d5a54df	0.053303596
7	0x3d3e7749	0.046500478
8	0xbeaf9dc4	-0.34300053
9	0xbe400227	-0.18750821
10	0xbabf8dbd	-0.0014614385
11	0x3d8a099d	0.06740115
12	0xbc63546a	-0.013875106
13	0x3eafb754	0.34319556
14	0x3e2c6f1c	0.1683926
15	0xbda6336f	-0.08115279
16	0x3e8ecf32	0.27892452
17	0xbf12a180	-0.5727768
18	0xbceec7c9	-0.029148
19	0xbeaff6c8	-0.34367967
20	0xbf06364e	-0.5242661
21	0x3dbc69dd	0.09199879
22	0xbe8f8cb6	-0.2803704
23	0x3c0b0c75	0.008486857
24	0xbe19f7ae	-0.15035889
25	0xbf004079	-0.5009838
26	0x3eecbbe1	0.4623709
27	0x3e6c31bd	0.23065849
28	0xbe1bc6d7	-0.1521257
29	0x3e9659cb	0.29365382
30	0x3e98804f	0.29785392
31	0xbeb4c896	-0.35309285
32	0xbed9a66a	-0.42509776
33	0x3d9319db	0.07182666
34	0x3e5b177e	0.2139568
35	0xbdba38b6	-0.09092848
36	0x3f14852c	0.58015704
37	0xbea1ef02	-0.3162766
38	0xbe71ccda	-0.23613301
39	0x3ecbcf60	0.39806652
40	0x3e3b40c6	0.18286428
41	0xbe620820	-0.22073412
42	0x3de063ee	0.1095656
43	0xbf33eaa8	-0.7027993
44	0x3d117da5	0.035520215
45	0xbe2a4921	-0.16629459
46	0xbf220f50	-0.63304615
47	0xbec0bc74	-0.37643778
48	0xbecb9ecf	-0.397696
49	0x3ea96c59	0.33090475
50	0xbe340c1e	-0.17582747
51	0xbf18a58a	-0.5962759
52	0x3daa21d8	0.083072364
53	0x3ea1dd9d	0.3161439
54	0x3c2c0e4a	0.010501454
55	0xbf0a1caf	-0.5395002
56	0xbcc30434	-0.023805715
57	0x3e5d643c	0.21620268
58	0x3e81d8be	0.25360674
59	0x3eb0209f	0.34399888
60	0x3c4c46c5	0.012468045
61	0x3eb21fcb	0.3478988
62	0x3ee0cb27	0.43904993
63	0xbee1fc88	-0.4413798

model.2.fc2.bias f4 [8]
0	0x3ca08274	0.019593455
1	0xbcfd835d	-0.030946428
2	0xbeffcfed	-0.49963322
3	0xbe2a516a	-0.1663262
4	0xbebfe5fc	-0.37480152
5	0x3e2b4067	0.16723786
6	0xbeab7a0e	-0.33491558
7	0xbe763d52	-0.2404683

model.2.fc_residual.weight f4 [8, 16]
0	0x3e8b4a60	0.2720518
1	0xbe2edcf9	-0.17076482
2	0x3e31a303	0.1734734
3	0x3ea78d80	0.32725143
4	0xbefd9136	-0.4952485
5	0x3f029ef7	0.5102381
6	0x3de5890c	0.1120778
7	0x3d782e5e	0.060591094
8	0xbdc5ff4d	-0.096678354
9	0xbd67d679	-0.05660102
10	0xbbf6e77e	-0.0075349202
11	0x3d56e08f	0.05246025
12	0xbf3fa000	-0.74853516
13	0xbe12ceed	-0.14336748
14	0x3db06bb3	0.08614292
15	0xbcff2edc	-0.031150274
16	0xbeb06c17	-0.34457466
17	0x3e9bb31c	0.30410087
18	0x3ea74b65	0.3267471
19	0xbe913d57	-0.2836711
20	0x3f67c885	0.90540344
21	0xbeb51db2	-0.35374218
22	0x3e1b33b6	0.15156445
23	0xbee6475a	-0.44976312
24	0xbedda157	-0.43287155
25	0xbe7f6bbb	-0.2494344
26	0x3eeb6eac	0.45982873
27	0xbebad458	-0.3649013
28	0xbddba948	-0.10725647
29	0x3e6e4ff5	0.23272689
30	0xbd8bf390	-0.06833565
31	0x3ecf7f1a	0.40526658
32	0xbeba6542	-0.3640538
33	0xbe0039dc	-0.12522072
34	0x3e35fcfc	0.17772287
35	0x3e8d3577	0.27579853
36	0x3db0ed7e	0.08639048
37	0x3e9d86ae	0.30766815
38	0xbe099627	-0.13436185
39	0xbd71fb7d	-0.05907773
40	0xbe51b375	-0.20478614
41	0x3e392a38	0.18082511
42	0xbeef0adc	-0.46687973
43	0x3de79fc8	0.11309773
44	0x3e663a09	0.22483076
45	0xbf007f68	-0.50194407
46	0xbe43f348	-0.19135773
47	0xbe153c03	-0.14573674
48	0x3eb4fd95	0.35349718
49	0x3e8ee4b7	0.2790887
50	0x3dd46bee	0.103721485
51	0xbe4ae96e	-0.19815609
52	0xbe63b747	-0.22237884
53	0xbec4128d	-0.38295403
54	0xbe2c102e	-0.16803047
55	0x3d6f93ea	0.05849067
56	0x3eed6cbe	0.46372026
57	0xbe26e55b	-0.1629843
58	0xbe92e9a6	-0.28693885
59	0xbeebae39	-0.4603136
60	0xbefab599	-0.48966673
61	0x3ee71d72	0.45139652
62	0xbe895058	-0.2681911
63	0xbebce5b1	-0.3689399
64	0xbd03cca8	-0.032177597
65	0xbe88c4b8	-0.26712584
66	0x3dd109bf	0.10206937
67	0x3d5259bc	0.05135511
68	0xbea8cdc9	-0.32969502
69	0x3e4c539c	0.1995377
70	0xbec5da7d	-0.38643256
71	0xbd6c5740	-0.057700396
72	0x3df4e646	0.11957984
73	0xbdbb1a0b	-0.09135827
74	0x3e4f7f6b	0.2026345
75	0x3e0d91e7	0.13825189
76	0x3caee00d	0.02134707
77	0xbe0e48b1	-0.13894917
78	0x3eceb149	0.40369633
79	0x3b424e03	0.002964855
80	0xbe7d89c1	-0.2475958
81	0xbe1fca01	-0.15604402
82	0xbe7d7fe6	-0.2475582
83	0x3e86d611	0.26335195
84	0x3f78b7b2	0.97155297
85	0xbe9735ae	-0.29533142
86	0xbea94fff	-0.33068845
87	0xbdcc6313	-0.099798344
88	0x3e93c06c	0.28857744
89	0x3f194f08	0.5988622
90	0x3e98000e	0.29687542
91	0xbc4be195	-0.01244392
92	0xbd776b91	-0.060405318
93	0xbe220c4a	-0.15825
94	0x3eb9af72	0.36266667
95	0xbc60a9dd	-0.013712374
96	0xbef90b43	-0.48641405
97	0xbde0e986	-0.10982041
98	0x3df9dea2	0.12200667
99	0xbcacfdd9	-0.021117138
100	0xbe010147	-0.12598144
101	0xbed03dcf	-0.40672156
102	0xbe65a3b8	-0.22425735
103	0x3e32b359	0.17451228
104	0xbddea6ea	-0.1087168
105	0xbdd4cfb4	-0.10391179
106	0xbeb0f65d	-0.3456296
107	0xbe968e53	-0.2940546
108	0x3eaa677c	0.33282077
109	0x3d2f97e5	0.042869467
110	0xbdfe7518	-0.124246776
111	0xbd22c2e0	-0.03973663
112	0x3e507ec9	0.20360865
113	0x3ee9e56a	0.45682842
114	0xbeb6f453	-0.3573328
115	0xbebbbf57	-0.36669418
116	0xbe588617	-0.21144901
117	0x3dc9e72f	0.09858548
118	0xbe8aaec7	-0.2708647
119	0x3dba7cb0	0.091058135
120	0x3c62a9b4	0.013834406
121	0xbd6bc476	-0.057560407
122	0x3ea73d03	0.32663736
123	0xbe80d972	-0.25165898
124	0xbeae8cf5	-0.34091917
125	0x3e545f76	0.2073954
126	0x3e2dd5d8	0.16976106
127	0xbf01d6de	-0.50718486

model.2.fc_residual.bias f4 [8]
0	0x3d96e597	0.073680095
1	0xbd594c30	-0.053051174
2	0xbd739207	-0.059465434
3	0xbd8a3f71	-0.06750382
4	0x3e313bae	0.17307922
5	0x3d974da1	0.073878534
6	0xbe9e14cc	-0.30875242
7	0xbe2c2f48	-0.16814911

model.3.weight f4 [1, 8]
0	0x3e8243e2	0.25442415
1	0x3d9e3023	0.07724025
2	0xbec0dff5	-0.37670866
3	0x3f330634	0.6993134
4	0x3e5e1de2	0.21691087
5	0x3e8991ff	0.268692
6	0x3eb9a1e9	0.3625634
7	0xbf3a475e	-0.7276515
