model_lib/resnet_St_model.pth (torch, 19418 bytes, 19 tensors)

model.0.fc1.weight f4 [32, 5]
0.1577954 -0.26568207 -0.34489948 0.3735466 0.22479557 0.34049442 -0.0031399853 -0.58596253
-0.143121 0.013012192 0.07661001 -0.33597076 -0.28223217 0.24045675 -0.044191808 -0.060164634
0.032353714 0.06546219 -0.58798945 -0.012324497 -0.044921983 0.20199397 0.25494373 -0.7631286
-0.10119442 0.25739923 -0.17118181 -0.03644046 -0.5082113 -0.03459547 -0.5206761 0.19263542
-0.42706287 -0.5839639 0.00450433 -0.035938427 0.16021954 -1.7955283 0.3434138 -0.00599721
0.5489023 0.1340677 0.068751074 -0.69705456 1.3190238 0.33106023 -0.3256685 -0.1672486
0.39239568 -0.1930424 0.06596572 -0.3923652 -0.08449424 0.07204515 -0.3381697 0.5864095
-0.13225485 -0.43822652 -0.96390027 -0.42491084 0.09510188 0.025649775 -0.68851143 0.2232483
-0.41552305 -0.03399372 0.15246184 -1.8464832 0.32440066 0.013045657 0.2789075 0.09357025
-0.1505943 -0.6009368 -0.08500099 0.57054806 -0.16928989 -0.31333977 -1.0143722 -0.32255796
0.20345224 -0.53589946 -0.07276335 0.110347606 -0.81472343 -0.18750714 -0.19533554 -0.35854352
-0.42620155 0.19846772 0.085173965 -0.101070374 -0.36269367 -0.031950135 0.1311315 -0.3000527
0.4490192 -0.6937178 0.103810556 0.25060835 0.3142239 0.003963516 -0.09711014 -0.47521585
0.2032755 0.018891476 -0.38985658 -0.20702918 0.23210208 -0.058561582 -0.5323149 0.35654172
0.020100828 0.1221918 0.13200884 0.17799318 0.47503373 0.32357416 -0.7736693 -0.13910556
-0.015290033 0.3726327 -0.4899132 -0.3069045 0.2385304 0.20264013 0.11287732 -0.023277177
-0.74309236 -0.07009742 0.15782273 -0.01427221 0.08038663 -0.12508152 -0.00135704 0.2968164
-0.23248813 -0.12078453 -0.19965708 0.5235763 0.2641787 -0.4390311 -0.3602584 0.3813317
-0.02868634 0.27089062 -0.20248486 -0.28370965 0.04943264 0.4989777 0.015747087 -0.11098717
-0.71512634 0.06854535 0.022930788 0.16096668 0.16142133 -0.32316312 0.4997885 0.41162935
00000000: 1e95 213e 7b07 88be aa96 b0be 8041 bf3e
00000010: cf30 663e 4955 ae3e 36c8 4dbb a401 16bf
00000020: 508e 12be 1731 553c b5e5 9c3d 5c04 acbe
00000030: bc80 90be 4b3a 763e 7802 35bd 316f 76bd
00000040: 5485 043d 0a11 863d 7a86 16bf b0ec 49bc
00000050: 1d00 38bd 82d7 4e3e fc87 823e 655c 43bf
00000060: 053f cfbd d5c9 833e 494a 2fbe 9742 15bd
00000070: 231a 02bf fbb3 0dbd 074b 05bf 3842 453e
00000080: fca7 dabe a87e 15bf 0f99 933b 2c34 13bd
00000090: 9710 243e dfd3 e5bf efd3 af3e 3e84 c4bb
000000a0: dc84 0c3f 0b49 093e 5dcd 8c3d 2b72 32bf
000000b0: c6d5 a83f ba80 a93e 06be a6be 3843 2bbe
000000c0: 16e8 c83e e8ac 45be 0919 873d 17e4 c8be
000000d0: 510b adbd 688c 933d 9424 adbe ef1e 163f
000000e0: d16d 07be 3a5f e0be 2bc2 76bf ea8d d9be
000000f0: c6c4 c23d 7a1f d23c 4942 30bf 349b 643e
00000100: 70bf d4be 003d 0bbd f51e 1c3e 9059 ecbf
00000110: d817 a63e 74bd 553c f7cc 8e3e c2a1 bf3d
00000120: 6435 1abe fed6 19bf 0015 aebd 700f 123f
00000130: 545a 2dbe 126e a0be f3d6 81bf 5126 a5be
00000140: c955 503e b530 09bf f404 95bd edfd e13d
00000150: b791 50bf df01 40be 0a06 48be 0493 b7be
00000160: 1737 dabe 1f3b 4b3e b06f ae3d fcfd cebd
00000170: fcb2 b9be 25de 02bd 5647 063e 82a0 99be
00000180: d8e5 e53e 7d97 31bf a19a d43d bd4f 803e
00000190: f4e1 a03e 62e0 813b aee1 c6bd 7e4f f3be
000001a0: 7427 503e 4cc2 9a3c 489b c7be 75ff 53be
000001b0: 2bac 6d3e 45de 6fbd ca45 08bf a38c b63e
000001c0: 7eaa a43c b23f fa3d 532d 073e d843 363e
000001d0: 9f37 f33e 83ab a53e 310f 46bf b071 0ebe
000001e0: 0c83 7abc b7c9 be3e e7d5 fabe 9622 9dbe
000001f0: 5041 743e e580 4f3e 392c e73d c7af bebc
00000200: 4d3b 3ebf 3c8f 8fbd 489c 213e fdd5 69bc
00000210: bfa1 a43d 5f15 00be b5de b1ba 52f8 973e
00000220: 5e11 6ebe e15d f7bd e872 4cbe 1909 063f
00000230: 6e42 873e afc8 e0be ca73 b8be e93d c33e
00000240: 9eff eabc 2db2 8a3e 3158 4fbe 6442 91be
00000250: e179 4a3d 017a ff3e 0900 813c 3e4d e3bd
00000260: 8512 37bf 8161 8c3d 59d9 bb3c 73d4 243e
00000270: a24b 253e a375 a5be 47e4 ff3e 15c1 d23e

model.0.fc1.bias f4 [32]
-0.24634081 -0.10563021 -0.28647617 0.30386966 0.23124631 -0.15510288 0.3272128 -0.40930203
-0.21059483 -0.6048519 -0.28674686 -0.63775635 -0.697191 -0.4200022 0.35854667 -0.63103676
-0.87994003 -0.51232964 0.057741843 -0.57946813 -0.48429662 -0.48687738 -0.405625 0.0044285133
-0.4039428 0.34912416 -0.46254146 -0.36625284 -0.31996801 -0.28070343 -0.14176653 -0.4995555
00000000: c440 7cbe a754 d8bd 01ad 92be ce94 9b3e
00000010: d5cb 6c3e 4ad3 1ebe 7088 a73e 0990 d1be
00000020: 2ca6 57be 93d7 1abf 7cd0 92be 0044 23bf
00000030: 1c7b 32bf 870a d7be 6e93 b73e a08b 21bf
00000040: c043 61bf 0928 03bf b682 6c3d 0658 14bf
00000050: baf5 f7be fe47 f9be 14ae cfbe 101d 913b
00000060: 97d1 cebe 67c0 b23e 3cd2 ecbe 7e85 bbbe
00000070: d9d2 a3be 5cb8 8fbe 3f2b 11be bdc5 ffbe

model.0.fc2.weight f4 [32, 32]
-0.31087306 -1.9338968 -0.021060694 -0.17831188 -0.032008912 -0.2749258 -0.29821536 -0.79554373
-1.1747265 -0.09439671 0.5294622 -0.18930219 -0.49154678 -0.538065 -0.54001594 -0.071667075
0.2912479 -0.42155683 -0.04400957 -0.14015016 -0.7400077 0.25689298 -0.16571084 0.03950352
0.3444568 -0.51612157 -0.55352443 -0.76872486 -0.019735577 -1.2397773 0.10384982 -0.07277859
0.19019535 -0.616847 0.25611845 0.044760518 -0.10760794 0.32449937 0.85026705 0.25068873
0.2493219 0.18662412 0.30748084 0.17008373 -0.37275517 0.28966895 0.031293582 0.126819
0.61527663 0.23122858 0.43523988 0.22353673 -0.40703517 0.47551394 -0.12434702 0.0043135732
-0.05248948 0.020814037 0.18358499 -0.196833 0.59325504 0.0052354056 0.35738406 0.47872725
-0.24737267 -0.077329986 -0.23710628 0.23662412 0.32431307 -0.21821497 0.2744795 0.123846225
0.22469264 -0.15925683 -0.2478146 -0.18207906 0.03992822 -0.18888855 0.1206491 -0.11520108
-0.40703166 -0.42676127 -0.119856 0.13639078 0.2387144 -0.5017005 -0.16123381 0.37602141
0.11429101 0.28014445 -0.49434477 -0.24130033 -0.4367245 -0.24334079 -0.16992188 -0.09102867
0.17935802 0.42631537 0.49695417 0.12512577 0.10415602 0.0068927333 0.028139273 -0.06214771
-0.29220665 0.5608649 0.3124142 -0.1376327 1.4581386 -0.108192176 0.10453547 -0.30608603
0.7947612 -0.09342084 -0.16718608 -1.1584748 -0.5881739 0.6538166 0.017194562 0.4276219
-0.013504136 0.2718911 -0.41273662 -0.78502566 0.45796594 -0.11807601 -0.14824599 -0.74852276
0.28500754 -3.3141909 0.49245298 0.033225838 0.10713914 -2.8091908 0.26284024 -3.9008663
-0.25024366 -0.0892427 -0.85393214 0.66474235 -1.4344484 -3.8028805 -0.04848498 0.272691
-0.33103603 -1.7915845 -0.9301933 -0.45563996 -2.4930117 -0.5543394 -0.0047767092 0.3936169
0.3972838 0.118542746 -0.52193224 -0.20362732 -0.101484135 -0.6618989 -2.2100694 -0.15958372
0.11069684 -0.013507802 0.11083108 -0.75005716 -0.7417714 0.07537153 -0.6156593 -0.32116234
0.99407226 0.119197235 -0.1384731 0.029766146 -0.88732237 -0.36743176 0.04204092 -0.011854597
-0.14709125 -0.47700176 -0.035325445 -0.6715174 -0.010126137 -0.12756877 -1.9314425 0.09978321
-0.055732146 -0.042190906 0.30880508 -0.27653217 0.21687666 -0.012299304 -0.37798747 0.22174527
-0.20091039 -1.6988472 0.19396244 0.16821377 -0.5720973 -0.11098633 0.06536038 0.2104524
-0.9623612 -0.037988994 0.16019396 -3.6852949 -0.16128272 0.18194532 0.11848075 -4.181484
0.15188685 -0.029362988 0.4521171 -0.04169883 -0.23673111 0.34140128 -0.2498316 -0.28592402
-1.0533633 -0.20425995 -0.13714407 -1.18974 0.099321924 -0.6962926 0.37011915 -0.08819788
-0.086225435 0.15282133 -0.0012991334 -1.2015246 -1.1120685 0.08334271 -1.2997756 -0.64732146
-0.6941377 0.12821198 -0.30080658 -0.38762164 0.31541345 -0.9155104 0.1786286 -0.4106006
-0.17270133 -1.2526644 -0.5510386 -0.31015152 0.21201451 0.04983667 0.14806238 0.40996498
-0.59068966 0.6428292 0.0999006 0.19950405 0.07712475 0.06371209 -0.32637724 0.22180544
00000000: c12a 9fbe ee89 f7bf 7a87 acbc 6497 36be
00000010: c71b 03bd 13c3 8cbe afaf 98be c1a8 4bbf
00000020: 705d 96bf 1053 c1bd d68a 073f 6fd8 41be
00000030: 05ac fbbe a1be 09bf 7c3e 0abf 30c6 92bd
00000040: 721e 953e 4cd6 d7be 6143 34bd 8683 0fbe
00000050: 2571 3dbf 7a87 833e 1ab0 29be 71ce 213d
00000060: a45c b03e 8b20 04bf c7b3 0dbf 27cb 44bf
00000070: 81ac a1bc 06b1 9ebf 37af d43d f10c 95bd
00000080: 92c2 423e afe9 1dbf f521 833e ce56 373d
00000090: 8d61 dcbd c824 a63e 1aab 593f 465a 803e
000000a0: 3d4e 7f3e 651a 3f3e 216e 9d3e 6e2a 2e3e
000000b0: c4d9 bebe 7d4f 943e b32d 003d d7dc 013e
000000c0: c582 1d3f 2fc7 6c3e c3d7 de3e d0e6 643e
000000d0: ea66 d0be 9076 f33e a7a9 febd e058 8d3b
000000e0: 35ff 56bd 3382 aa3c b4fd 3b3e 978e 49be
000000f0: 90df 173f c48d ab3b 0bfb b63e bd1b f53e
00000100: 434f 7dbe 2f5f 9ebd fdcb 72be 984d 723e
00000110: 5d0c a63e bf73 5fbe 9488 8c3e 17a3 fd3d
00000120: d415 663e 3914 23be 1cc3 7dbe ef72 3abe
00000130: c68b 233d 006c 41be e016 f73d 8bee ebbd
00000140: 7466 d0be 7480 dabe 1077 f5bd 06aa 0b3e
00000150: 8c71 743e 726f 00bf 7a1a 25be e185 c03e
00000160: 6811 ea3d 186f 8f3e c21a fdbe 6f17 77be
00000170: 5b9a dfbe 542e 79be 0000 2ebe 3d6d babd
00000180: a1a9 373e 0246 da3e c770 fe3e f820 003e
00000190: c04f d53d 70dc e13b 5584 e63c 998e 7ebd
000001a0: 1c9c 95be d894 0f3f c1f4 9f3e 96ef 0cbe
000001b0: 49a4 ba3f dc93 ddbd b116 d63d 4fb7 9cbe
000001c0: 7875 4b3f 6d53 bfbd d432 2bbe e748 94bf
000001d0: 9192 16bf 8660 273f 9cdb 8c3c 42f1 da3e
000001e0: 7440 5dbc 4f35 8b3e 3752 d3be 71f7 48bf
000001f0: 837a ea3e d6d1 f1bd cccd 17be 309f 3fbf
00000200: 82ec 913e b41b 54c0 cc22 fc3e d117 083d
00000210: c46b db3d c8c9 33c0 ff92 863e cba7 79c0
00000220: f01f 80be e0c4 b6bd 4c9b 5abf 8e2c 2a3f
00000230: 019c b7bf 6562 73c0 3098 46bd 289e 8b3e
00000240: 8e7d a9be a452 e5bf 2621 6ebf a449 e9be
00000250: 818d 1fc0 30e9 0dbf f185 9cbb 2888 c93e
00000260: c868 cb3e 8ac6 f23d 5a9d 05bf ae83 50be
00000270: ead6 cfbd 3572 29bf c771 0dc0 ea69 23be
00000280: 06b5 e23d d44f 5dbc 68fb e23d bf03 40bf
00000290: bbe4 3dbf 645c 9a3d d99b 1dbf 646f a4be
000002a0: 857b 7e3f ae1d f43d e4cb 0dbe 22d8 f33c
000002b0: 8f27 63bf 0420 bcbe 1a33 2c3d c939 42bc
000002c0: 179f 16be 9339 f4be 6ab1 10bd 90e8 2bbf
000002d0: 19e8 25bc 63a1 02be 8239 f7bf 245b cc3d
000002e0: 6447 64bd 5fd0 2cbd b31b 9e3e a095 8dbe
000002f0: ea14 5e3e 0583 49bc 9387 c1be 3111 633e
00000300: 74bb 4dbe d373 d9bf 179e 463e 3b40 2c3e
00000310: f874 12bf cd4c e3bd aadb 853d d580 573e
00000320: 4e5d 76bf 599a 1bbd e309 243e dfdb 6bc0
00000330: 4c27 25be e04f 3a3e 09a6 f23d b8ce 85c0
00000340: 3a88 1b3e a68a f0bc e47b e73e 64cc 2abd
00000350: a469 72be 26cc ae3e dbd3 7fbe a264 92be
00000360: 9cd4 86bf 8529 51be 7f6f 0cbe 6649 98bf
00000370: 4b69 cb3d 3b40 32bf 4280 bd3e 17a1 b4bd
00000380: f696 b0bd 327d 1c3e af47 aaba 8fcb 99bf
00000390: 4358 8ebf 95af aa3d 0c5f a6bf dcb6 25bf
000003a0: 02b3 31bf 004a 033e 5203 9abe 5876 c6be
000003b0: df7d a13e e45e 6abf 6aea 363e 3e3a d2be
000003c0: 9ed8 30be 4f57 a0bf de10 0dbf 2ecc 9ebe
000003d0: 551a 593e 8921 4c3d aa9d 173e eee6 d13e
000003e0: 7037 17bf 7490 243f b098 cc3d ca4a 4c3e
000003f0: 95f3 9d3d 7c7b 823d eb1a a7be f720 633e

model.0.fc2.bias f4 [32]
-0.2015058 0.13328576 0.22070023 -0.10179799 -0.19648977 -0.17136653 -0.18774284 -0.39550248
-0.059007484 -0.15774843 -0.44550744 -0.13557284 -0.072588705 -0.063160025 0.23142883 -0.01699549
0.07614422 -0.011862151 -0.02614634 -0.20421226 -0.099004485 -0.092537284 -0.1835805 -0.0968679
-0.046712138 -0.3669817 0.24774587 0.32659104 -0.23574282 -0.38320127 0.1544988 -0.25173035
00000000: 8957 4ebe 107c 083e 3eff 613e 777b d0bd
00000010: 9d34 49be b57a 2fbe a93f 40be 4d7f cabe
00000020: d5b1 71bd ce88 21be 8d19 e4be 9bd3 0abe
00000030: 63a9 94bd 0b5a 81bd aefb 6c3e 203a 8bbc
00000040: 80f1 9b3d 7859 42bc d930 d6bc 051d 51be
00000050: ddc2 cabd 3084 bdbd 87fc 3bbe ad62 c6bd
00000060: 3a55 3fbd 06e5 bbbe 18b1 7d3e f136 a73e
00000070: 9166 71be f532 c4be ef34 1e3e cde2 80be

model.0.fc_residual.weight f4 [32, 5]
0.29751945 -0.49877185 -0.39485234 0.7331757 0.39864904 0.20308326 0.337264 0.37574506
-0.6320291 0.38505086 0.09659025 -0.03859431 -0.18741311 -1.1907445 0.060131647 -0.51900923
-0.82440037 -0.46061426 -0.05946238 -0.5608501 -0.9136975 -0.2947522 -0.5207542 0.44536832
0.4958298 0.7418296 0.14631537 -0.8567206 -0.31650817 -0.29431364 -0.08664406 -0.033282287
0.18113196 0.07460011 0.14013003 0.61131656 0.1708742 0.0710217 0.39738527 0.58915794
-0.1274335 0.306655 -0.9638064 -1.6452425 1.0187922 -1.5498071 -0.25387236 -0.3599947
0.59361726 -0.54634243 0.34991363 -0.5043244 -0.31659833 0.45902455 -0.22439817 0.111579336
-0.28840083 0.34908053 0.56346476 -0.24490008 -0.7121729 -0.36631033 -0.11558933 -0.6290203
0.9454463 0.038597357 0.12609407 -0.14579159 0.58006245 0.39655265 0.85281914 0.07139303
0.3003623 -0.3922889 -0.22123747 -0.32668042 0.2598496 -0.21474525 -0.43400776 -0.081506535
0.13121448 0.3081439 -1.5340492 -1.7825472 -0.8959179 -0.38206875 -0.10642347 -0.36440632
0.55543387 -0.3804721 -0.83750856 0.008790879 -1.1416476 -1.777257 1.4266839 -1.092184
-0.3109376 -0.07542812 0.08471707 -0.50350195 0.13603245 0.041962802 -0.35897663 0.34910914
0.1285593 0.80189013 0.11439322 -1.2752126 -1.6811996 -0.1863897 -0.3714553 -0.5050432
0.2557575 0.44284278 -0.23413748 -0.52368695 -0.028155686 -0.07419991 0.62309515 0.37310743
-1.4128505 -0.34893298 -0.62596124 0.29128462 0.17642213 0.53371006 -0.3569674 0.20427044
0.7817947 0.21082398 -0.0534952 0.28826177 -0.30056936 -0.4876595 -0.19151399 -1.0099046
-0.0875652 0.5634684 -0.68016064 -0.5650565 0.052442513 -0.22687887 0.5125946 0.4113759
-0.055401195 0.6533529 -0.085661896 -0.021973263 -0.39083976 0.91400987 0.358579 0.12437917
0.16334087 -0.4003619 0.4703658 0.10549202 -0.32652128 -0.12361996 0.012481597 -0.06561935
00000000: 7854 983e 065f ffbe 162a cabe 67b1 3b3f
00000010: ba1b cc3e 0ff5 4f3e dead ac3e a861 c03e
00000020: a9cc 21bf 6325 c53e 1cd1 c53d 1115 1ebd
00000030: 39e9 3fbe 516a 98bf 9a4c 763d cadd 04bf
00000040: e70b 53bf a2d5 ebbe d38e 73bd df93 0fbf
00000050: 14e8 69bf c3e9 96be 2650 05bf 5107 e43e
00000060: 67dd fd3e 8be8 3d3f b2d3 153e 0b52 5bbf
00000070: 5c0d a2be 47b0 96be 7172 b1bd 0253 08bd
00000080: a87a 393e f1c7 983d 3f7e 0f3e 3e7f 1c3f
00000090: a5f9 2e3e d373 913d 1576 cb3e 0ed3 163f
000000a0: ed7d 02be e201 9d3e 04bc 76bf 4e97 d2bf
000000b0: c867 823f 1460 c6bf 8ffb 81be 3a51 b8be
000000c0: 4df7 173f 19dd 0bbf e127 b33e 671b 01bf
000000d0: 2d19 a2be 4405 eb3e a2c8 65be b583 e43d
000000e0: 46a9 93be afba b23e 3a3f 103f 16c7 7abe
000000f0: f750 36bf 078d bbbe 19ba ecbd 7907 21bf
00000100: c508 723f 4318 1e3d ce1e 013e 644a 15be
00000110: f97e 143f f308 cb3e 5b52 5a3f 8236 923d
00000120: 16c9 993e 17da c8be 138c 62be a842 a7be
00000130: 020b 853e 2ee6 5bbe 4436 debe e6ec a6bd
00000140: 175d 063e 0ac5 9d3e b95b c4bf 822a e4bf
00000150: e05a 65bf 849e c3be 8cf4 d9bd 7793 babe
00000160: ea30 0e3f 3dcd c2be f666 56bf 9e07 103c
00000170: 8221 92bf 287d e3bf 949d b63f afcc 8bbf
00000180: 3733 9fbe 0f7a 9abd 2580 ad3d 81e5 00bf
00000190: 174c 0b3e 30e1 2b3d c9cb b7be 6fbe b23e
000001a0: 0da5 033e ac48 4d3f fe46 ea3d 2b3a a3bf
000001b0: 8c31 d7bf f1dc 3ebe 642f bebe 834a 01bf
000001c0: a6f2 823e 4abc e23e bcc1 6fbe 5910 06bf
000001d0: c1a6 e6bc 1ff6 97bd 2a83 1f3f f007 bf3e
000001e0: 49d8 b4bf 58a7 b2be ff3e 20bf 4223 953e
000001f0: 01a8 343e 39a1 083f 6ec4 b6be 452c 513e
00000200: b323 483f 3ee2 573e c81d 5bbd 0c97 933e
00000210: 3ae4 99be 82ae f9be 3e1c 44be 8e44 81bf
00000220: 6255 b3bd 773f 103f 021f 2ebf 8ba7 10bf
00000230: f6cd 563d ef52 68be 6639 033f dd9f d23e
00000240: 5dec 62bd 2342 273f 816f afbd 4601 b4bc
00000250: 261c c8be 8dfc 693f ab97 b73e 82ba fe3d
00000260: d442 273e 3cfc ccbe c9d3 f03e 330c d83d
00000270: cc2d a7be 762c fdbd 9d7f 4c3c 7063 86bd

model.0.fc_residual.bias f4 [32]
-0.0978166 -0.096953966 0.33257067 0.21559492 -0.19727801 0.14605819 0.06014977 -0.67394733
-0.41334537 -0.47102842 -0.12367269 -0.5505063 0.12690218 -0.52637017 -0.29735628 0.45226234
-0.48743832 -0.28442693 0.4243593 0.22967173 -0.41739494 -0.108921915 0.15035944 -0.64350176
-0.08475884 -0.4675262 0.5856828 0.059017878 -0.56366134 -0.5103703 0.4675121 0.062000696
00000000: 1254 c8bd cd8f c6bd b446 aa3e eac4 5c3e
00000010: 3f03 4abe 4790 153e 9b5f 763d d087 2cbf
00000020: 01a2 d3be a32a f1be 1b48 fdbd fbed 0cbf
00000030: a5f2 013e 32c0 06bf 153f 98be ee8e e73e
00000040: 8491 f9be 68a0 91be 9f45 d93e 112f 6b3e
00000050: cab4 d5be 7412 dfbd d3f7 193e 88bc 24bf
00000060: 0b96 adbd 985f efbe 4fef 153f bbbc 713d
00000070: 1c4c 10bf a1a7 02bf bf5d ef3e 71f4 7d3d

model.1.fc1.weight f4 [16, 32]
-0.48985893 -0.4924674 -0.0521995 -0.08548315 -0.0434585 0.34560975 0.060426008 -0.19785257
-0.18536243 0.20236374 -0.5797261 -0.21220645 0.011294638 -0.2733694 0.09863463 -0.043915004
-0.43673232 -0.4993879 -0.017694226 -0.33522397 0.020447066 -0.088207185 -0.4969421 -0.1718418
-0.2289746 -0.7797115 -0.32168543 -1.0154023 -0.113148116 -0.15070136 0.028413795 -0.25280502
-0.2767526 -0.28784174 -0.17451303 -0.07220572 0.13326211 0.19608407 0.094592504 -0.09840751
-0.25187567 0.08149681 0.1258246 0.14862779 0.16108038 -0.26969942 -0.2131914 -0.11410738
-0.324719 -0.46214503 -0.1614885 -0.58735144 -0.23177621 0.028711151 0.13933408 -0.050764848
0.0007931544 -0.3606604 0.010767192 -0.57131845 -0.19039354 0.08874973 -0.3007616 -0.25212097
-0.41463694 -0.052412268 0.030106887 -0.025643293 -0.029423324 -0.115864016 -0.14361216 0.10867784
0.033945356 -0.2731602 -0.0637415 -0.3684589 -0.120883755 -0.25287122 -0.3024931 -0.27821863
-0.25193483 0.030196551 -0.2071186 0.07398865 0.19395193 -0.008240627 -0.34241185 -0.24168268
-0.03345111 -0.2147415 -0.31036988 -0.030781496 -0.05723522 -0.18128546 0.187619 -0.07795578
0.44344884 -0.118642114 -0.020619053 -0.100137025 0.111098014 -1.2244214 -0.23804581 -0.23754366
-0.33374947 -0.037745573 0.19560608 0.0789191 0.26377907 -0.19312052 0.04691 -0.31187785
-0.17207256 -0.91057646 -0.23167542 -0.64495856 -1.0235323 -0.20522828 -0.87942326 0.09837614
-0.22979684 0.1173184 -0.3817365 -0.22181405 0.10396672 -1.039676 -0.06096396 -0.09159617
-0.21810168 -0.10664186 -0.28724405 0.14127997 -0.027302515 0.38027132 0.3070604 -0.28888622
-0.47492534 0.33099392 0.08530762 0.06162017 -0.25692606 0.07948582 -0.19689076 0.05856246
-0.3111549 -0.37124377 0.035057805 -0.60038537 -0.23977154 -0.49088347 -0.030886361 0.12301753
0.12060656 -0.47629505 -0.18876882 -0.66099 -0.111928985 -0.23887262 -0.02407993 0.021884587
-0.8761431 -0.24038666 -0.14267054 -0.5601725 -0.021235874 -0.026196377 -0.30915457 -0.9775109
0.15473612 0.35800755 -0.25362062 0.13825326 0.33420634 -0.06585323 -0.6632491 0.28632757
-0.18040664 0.09089896 -0.03839072 -0.1251613 -0.35491407 -0.22274165 -0.2600135 -0.14766471
-0.32341817 0.18655792 -0.6943992 -0.25414416 -1.1173153 -0.5575711 -0.17111877 -0.4504064
0.22775014 -0.26752922 0.13726011 -0.46766374 0.6619979 0.15781409 0.06275499 -0.26243013
-0.29563344 -0.065654114 -0.19668415 -0.3908352 0.3725081 -0.012705171 -0.27589157 0.26558673
-0.25633153 -0.033057854 0.10537289 -0.6759996 0.14677145 -1.882482 -0.6354928 0.014418109
-0.1204755 0.07357158 0.1641206 -0.046383355 0.010390414 0.5545063 -0.40666503 -0.5835965
-1.6882648 -0.672687 -0.24266967 -0.19017014 -0.1448771 0.041307647 0.17605922 -0.38402003
0.11947779 0.3886011 -0.9035928 -0.41984755 0.17608681 -0.21573108 -0.23221828 -0.11616183
0.0036944011 -0.0005962991 0.16589326 0.047296625 -0.44990703 -0.23734441 -0.3409941 -0.61685336
-0.5385888 -2.059215 0.2870312 -0.38025454 -0.14045607 -0.05979401 -0.64377105 0.0932122
00000000: cace fabe b024 fcbe 25cf 55bd ca11 afbd
00000010: 8a01 32bd c3f3 b03e 4381 773d dd99 4abe
00000020: a6cf 3dbe 7138 4f3e ee68 14bf a64c 59be
00000030: 250d 393c 13f7 8bbe f400 ca3d 38e0 33bd
00000040: 619b dfbe c5af ffbe 7bf3 90bc 7aa2 abbe
00000050: 9b80 a73c f8a5 b4bd 326f febe 4cf7 2fbe
00000060: 5178 6abe 2c9b 47bf f4b3 a4be b4f8 81bf
00000070: 33ba e7bd 7551 1abe 0cc4 e83c a96f 81be
00000080: 84b2 8dbe fe5f 93be 8bb3 32be 98e0 93bd
00000090: dd75 083e 43ca 483e b7b9 c13d e089 c9bd
000000a0: d9f5 80be cde7 a63d 2ad8 003e e231 183e
000000b0: 41f2 243e 0b16 8abe d94e 5abe 21b1 e9bd
000000c0: 9241 a6be 469e ecbe 3e5d 25be aa5c 16bf
000000d0: be56 6dbe a633 eb3c 98ad 0e3e cdee 4fbd
000000e0: b1eb 4f3a 7ba8 b8be e068 303c ed41 12bf
000000f0: 86f6 42be 6bc2 b53d 6dfd 99be 0016 81be
00000100: 4b4b d4be 3fae 56bd b8a2 f63c e211 d2bc
00000110: 2f09 f1bc 1d4a edbd 110f 13be 7d92 de3d
00000120: 490a 0b3d a7db 8bbe e78a 82bd a5a6 bcbe
00000130: e791 f7bd 5678 81be 60e0 9abe ac72 8ebe
00000140: 9afd 80be c25e f73c e616 54be 5d87 973d
00000150: 569b 463e b203 07bc 9b50 afbe aa7b 77be
00000160: 0804 09bd 32e5 5bbe cde8 9ebe 7a29 fcbc
00000170: 7a6f 6abd e5a2 39be 321f 403e 48a7 9fbd
00000180: ba0b e33e a3fa f2bd 4ae9 a8bc a414 cdbd
00000190: 5b87 e33d d7b9 9cbf 48c2 73be a53e 73be
000001a0: 36e1 aabe 1a9b 1abd f64c 483e 56a0 a13d
000001b0: 0d0e 873e 63c1 45be b324 403d 74ae 9fbe
000001c0: ca33 30be 8a1b 69bf 523c 6dbe 011c 25bf
000001d0: 1b03 83bf 5d27 52be e221 61bf 6e79 c93d
000001e0: dd4f 6bbe a144 f03d f772 c3be 3923 63be
000001f0: 81ec d43d 1a14 85bf 58b5 79bd c696 bbbd
00000200: 0c56 5fbe 0c67 dabd a711 93be b2ab 103e
00000210: 86a9 dfbc ecb2 c23e 0537 9d3e e5e8 93be
00000220: 6a29 f3be 0978 a93e c3b5 ae3d 6e65 7c3d
00000230: d08b 83be 76c9 a23d bb9d 49be 31df 6f3d
00000240: b24f 9fbe aa13 bebe c698 0f3d dbb2 19bf
00000250: ac86 75be 1455 fbbe 6505 fdbc 9df0 fb3d
00000260: 9200 f73d f2dc f3be 9d4c 41be a436 29bf
00000270: 063b e5bd 069b 74be 4643 c5bc 4e47 b33c
00000280: ea4a 60bf ec27 76be 3a18 12be 7767 0fbf
00000290: dbf6 adbc c999 d6bc 8249 9ebe 283e 7abf
000002a0: 2573 1e3e c44c b73e 90da 81be 4392 0d3e
000002b0: 181d ab3e 0fde 86bd b1ca 29bf 8799 923e
000002c0: 85bc 38be 3c29 ba3d 963f 1dbd 492a 00be
000002d0: 4cb7 b5be 6316 64be 7d20 85be 6b35 17be
000002e0: 1197 a5be 0a09 3f3e 25c4 31bf 2f1f 82be
000002f0: 3004 8fbf fbbc 0ebf c239 2fbe ab9b e6be
00000300: 5537 693e 97f9 88be ea8d 0c3e 9f71 efbe
00000310: b278 293f 049a 213e b085 803d 3e5d 86be
00000320: 445d 97be aa75 86bd 9267 49be 8d1b c8be
00000330: 62b9 be3e 5929 50bc a941 8dbe fcfa 873e
00000340: e33d 83be ac67 07bd becd d73d 4f0e 2dbf
00000350: 414b 163e 2cf5 f0bf a8af 22bf ef39 6c3c
00000360: dcbb f6bd b2ac 963d 3b0f 283e 79fc 3dbd
00000370: 8e3c 2a3c 20f4 0d3f 6636 d0be 9566 15bf
00000380: 1019 d8bf 3735 2cbf 667e 78be f6bb 42be
00000390: aa5a 14be 3532 293d de48 343e 469e c4be
000003a0: c6b0 f43d b9f6 c63e dc51 67bf 42f6 d6be
000003b0: 1a50 343e 9ce8 5cbe a1ca 6dbe 41e6 edbd
000003c0: c41d 723b f550 1cba ecdf 293e 1bba 413d
000003d0: 375a e6be 6a0a 73be c796 aebe 1aea 1dbf
000003e0: f5e0 09bf 2eca 03c0 c1f5 923e b9b0 c2be
000003f0: b7d3 0fbe 90ea 74bd 2ece 24bf 0ae6 be3d

model.1.fc1.bias f4 [16]
0.0020793555 0.0054028914 0.06547976 -0.4060366 -0.035141148 -0.18702713 -0.4119479 -0.11756044
-0.23613916 -0.47490877 -0.79700226 -0.014043885 -0.59346133 0.024214022 -0.35620496 -0.13991691
00000000: cc45 083b bd0a b13b 411a 863d 07e4 cfbe
00000010: 2af0 0fbd 0a84 3fbe d6ea d2be 87c3 f0bd
00000020: 77ce 71be 3e27 f3be 5708 4cbf 5318 66bc
00000030: 15ed 17bf 7c5c c63c 7f60 b6be 6146 0fbe

model.1.fc2.weight f4 [16, 16]
-0.20380577 -0.5119941 -0.0031053291 -0.10493871 -0.35094523 -0.79185826 -0.13437644 0.13174962
0.047864776 0.19332801 -0.09837576 -0.1859988 -0.06921759 0.05312306 -0.0035063059 -0.47954503
0.28786954 -0.18567841 -0.113693155 0.1337688 0.18024674 0.04264469 0.05153151 -0.2309624
-0.375277 0.13912508 0.1118437 0.1140233 0.11474573 0.14857453 0.095408134 0.26056314
0.23854339 0.0055181608 0.069671206 0.09980068 0.16841152 -0.13219225 0.065624535 4.392673e-05
-0.34371907 -0.08009578 -0.41476575 -0.63866395 0.085703954 -0.8266198 -0.31473574 0.4870693
0.015961682 -0.054469757 -0.43995288 -0.47301635 -0.13009779 -0.45646426 -0.3075408 0.26426864
-0.83773565 -0.32824084 -0.014530447 -0.56546366 -0.21513502 -0.5202618 -0.14058891 -0.23036434
0.078684315 -0.1513772 0.32968888 -0.30373457 -0.5183869 -0.26092905 0.27591732 0.13480563
0.30384192 -0.42590228 -0.12885955 -0.00074349786 -0.58560425 -0.09428138 0.0021320537 -0.48553365
0.02503292 -0.27950048 -0.13532564 0.48212585 -0.4293956 0.06946465 -0.06023482 0.2951747
-0.03600376 -0.2460962 0.4706733 -0.14625134 0.3386811 -0.21058527 -0.12304077 0.2702358
-0.12470489 -0.5718103 -0.23197691 -0.12121458 -0.21874398 0.07463608 -0.42572886 -0.38796496
0.115411185 0.2798367 -0.19246142 0.02784574 -0.03120922 -0.0025241831 -0.24919735 -1.0707629
-0.3761233 -0.3954291 0.21669133 0.18400362 0.31750548 0.3893752 -0.19513538 -0.17166916
-0.07789271 -0.19585356 -0.01750308 -0.08561094 -0.14010479 -0.41394675 0.06494629 0.28215703
-0.22106619 0.33029294 0.21164154 -0.08299635 -0.43337667 0.044215627 0.1807202 0.2778261
-0.1641831 -0.44866252 -0.0137728965 -0.28972873 -0.4514661 0.043564145 0.0070358394 -0.05372752
-0.5298184 0.1871752 -0.33425358 0.55258083 -0.25791225 -0.36473912 -0.13303055 -0.7120074
-0.7049991 -0.53598017 -0.09281561 -0.09330767 0.53107744 -0.4747109 0.19043101 -0.14716479
-0.1050967 0.35263747 -0.15564615 0.4543158 0.38945562 0.108516425 -0.43645594 -0.27152866
-0.43277884 -0.22784768 -0.40672538 -0.03599807 0.29164052 -0.03480422 0.19332163 0.19189191
-0.0039256834 -0.015234912 0.15038852 -0.030385034 0.1433369 -0.32486048 -0.05610836 0.51266056
-0.08901651 -0.35717028 -0.2717787 -0.92423636 -0.045827165 -0.79991597 -0.359885 0.27629378
-0.045591485 -0.00042206113 -0.2814835 -0.30842608 -0.38639224 0.1840145 0.3362999 0.38463354
0.04892691 -0.004343101 -0.18411945 0.2697686 0.25124267 -0.28543705 -0.4222568 0.10505777
-0.56506133 -0.15354323 -0.021769159 -0.2796386 -0.27047217 0.067272075 0.09264878 -0.5200627
-0.188456 -0.46000305 -0.22577609 -2.3576622 -0.34785998 -1.9590238 -0.22957684 -0.29299417
-0.4005574 0.07321433 0.25338903 -0.51076466 -0.06312896 0.053142425 0.2124235 0.16920431
-0.56140566 -0.25773013 0.34838095 -0.6313423 -0.09859504 -0.81763816 -0.3034641 -0.0410294
-0.23875356 -0.22528161 -0.0008894759 -0.122765265 -0.058227163 -0.5076294 -0.016801514 -0.59471196
-0.3207829 -0.24480723 0.32178757 0.039787415 0.15727755 0.14645536 -0.46014956 -0.066921875
00000000: 76b2 50be 0c12 03bf c782 4bbb 1bea d6bd
00000010: 18af b3be 39b7 4abf fa99 09be 5fe9 063e
00000020: db0d 443d c7f7 453e 3b79 c9bd 7876 3ebe
00000030: f4c1 8dbd 9197 593d 0dca 65bb ed86 f5be
00000040: a363 933e 7b22 3ebe f5d7 e8bd b0fa 083e
00000050: 9a92 383e 33ac 2e3d b412 533d 6881 6cbe
00000060: 4f24 c0be ce76 0e3e 4f0e e53d 0c85 e93d
00000070: cfff ea3d ec23 183e 5765 c33d 8868 853e
00000080: b844 743e b0d1 b43b c7af 8e3d 4d64 cc3d
00000090: 1274 2c3e 685d 07be 2866 863d f83d 3838
000000a0: f2fb afbe 4209 a4bd 2d5c d4be 7b7f 23bf
000000b0: 8e85 af3d 5b9d 53bf 0b25 a1be 2661 f93e
000000c0: 13c2 823c ae1b 5fbd 8141 e1be 332f f2be
000000d0: 5b38 05be afb5 e9be fd75 9dbe 384e 873e
000000e0: d875 56bf 2f0f a8be 1d11 6ebc 3ac2 10bf
000000f0: 5b4c 5cbe e12f 05bf 8af6 0fbe a1e4 6bbe
00000100: 3e25 a13d a002 1bbe fbcc a83e 1983 9bbe
00000110: 01b5 04bf 7e98 85be 0945 8d3e 7d0a 0a3e
00000120: 2b91 9b3e dd0f dabe c2f3 03be 4ce7 42ba
00000130: 29ea 15bf 9916 c1bd edb9 0b3b de97 f8be
00000140: d711 cd3c b01a 8fbe ce92 0abe 33d9 f63e
00000150: bdd9 dbbe 7b43 8e3d c9b8 76bd 2321 973e
00000160: ae78 13bd a400 7cbe 17fc f03e e9c2 15be
00000170: 9c67 ad3e aaa3 57be cdfc fbbd 595c 8a3e
00000180: 4765 ffbd 2962 12bf 5b8b 6dbe 5a3f f8bd
00000190: 6cfe 5fbe cdda 983d 22f9 d9be 58a3 c6be
000001a0: b35c ec3d c246 8f3e 9b14 45be c01c e43c
000001b0: 7aaa ffbc c46c 25bb 972d 7fbe c20e 89bf
000001c0: 3c93 c0be af75 cabe 55e4 5d3e 726b 3c3e
000001d0: 1490 a23e 305c c73e 92d1 47be 0aca 2fbe
000001e0: 3786 9fbd d68d 48be 9f62 8fbc ca54 afbd
000001f0: a177 0fbe d4f0 d3be 8f02 853d e376 903e
00000200: 2d5f 62be 281c a93e 8fb8 583e fef9 a9bd
00000210: 8ce3 ddbe 721b 353d b70e 393e 393f 8e3e
00000220: 9d1f 28be 18b7 e5be b7a7 61bc 5357 94be
00000230: 9126 e7be 5170 323d e68c e63b 6311 5cbd
00000240: 2ea2 07bf dbaa 3f3e 4923 abbe f075 0d3f
00000250: 130d 84be 16bf babe 2939 08be 1e46 36bf
00000260: d27a 34bf ff35 09bf 1c16 bebd 1718 bfbd
00000270: b1f4 073f 4f0d f3be 5900 433e 5eb2 16be
00000280: f03c d7bd e68c b43e b461 1fbe 159c e83e
00000290: ba66 c73e dc3d de3d 2777 dfbe ce05 8bbe
000002a0: 3095 ddbe e750 69be 4f3e d0be b672 13bd
000002b0: e851 953e df8e 0ebd 1bf6 453e 507f 443e
000002c0: 05a3 80bb da9b 79bc 73ff 193e 09ea f8bc
000002d0: e9c6 123e 1d54 a6be e1d1 65bd b93d 033f
000002e0: 4a4e b6bd 06df b6be 9426 8bbe c19a 6cbf
000002f0: 44b5 3bbd 4bc7 4cbf d942 b8be 6176 8d3e
00000300: 23be 3abd 1648 ddb9 9b1e 90be 06ea 9dbe
00000310: 34d5 c5be 4c6e 3c3e 802f ac3e b0ee c43e
00000320: 9567 483d 9250 8ebb cf89 3cbe 1c1f 8a3e
00000330: e1a2 803e ce24 92be 0b32 d8be 8728 d73d
00000340: dca7 10bf 703a 1dbe 3c55 b2bc ca2c 8fbe
00000350: 547b 8abe f1c5 893d a5be bd3d d422 05bf
00000360: 9cfa 40be 8585 ebbe d931 67be f0e3 16c0
00000370: b41a b2be 4bc1 fabf 3116 6bbe 5503 96be
00000380: dc15 cdbe 65f1 953d 35bc 813e 79c1 02bf
00000390: c249 81bd dfab 593d 8c85 593e e543 2d3e
000003a0: 48b8 0fbf 34f5 83be fd5e b23e a69f 21bf
000003b0: 32ec c9bd bc50 51bf a65f 9bbe 720e 28bd
000003c0: d07b 74be 39b0 66be b82b 69ba 5b6c fbbd
000003d0: 9b7f 6ebd 00f4 01bf 54a3 89bc 0b3f 18bf
000003e0: a83d a4be bfae 7abe 57c1 a43e 21f8 223d
000003f0: 5e0d 213e 65f8 153e b998 ebbe 560e 89bd

model.1.fc2.bias f4 [16]
-0.18153115 -0.014196052 0.24481441 0.38055316 -0.40348193 -0.28575355 0.0852223 -0.2712576
0.07768293 0.06301126 0.077511236 0.39388305 -0.34210765 0.4523339 0.1709957 0.29998127
00000000: 4de3 39be 8f96 68bc a1b0 7a3e ddd7 c23e
00000010: 2f95 cebe 4a4e 92be 0789 ae3d 47e2 8abe
00000020: 3a18 9f3d 0c0c 813d 36be 9e3d 0aab c93e
00000030: bc28 afbe 4f98 e73e 7f19 2f3e 2597 993e

model.1.fc_residual.weight f4 [16, 32]
-0.5831893 -1.149092 -0.7405889 0.35423964 0.24656437 0.117999405 -0.14970164 -0.11526604
0.8742796 -0.13556303 -2.4012027 -2.2329254 0.14300106 -0.8301423 -1.0863233 -0.22089836
1.1854867 0.6554482 0.6611483 0.17422003 -0.115338385 0.81363046 0.37141722 -0.07366745
-0.5822377 -1.7402523 0.3437892 0.21585436 -0.020929618 0.65770537 -0.5227813 -0.4896489
-0.21062537 0.5342707 -0.009838258 -0.1438736 -0.12414763 -1.2596202 0.13309737 0.14707716
-0.14245932 -1.5548269 -0.107257426 0.06588426 -0.008927976 0.124882676 0.28650022 0.38729325
-0.38432714 -1.2304573 -0.5649953 -0.6659685 -0.21568306 -0.45680815 -0.9538821 -0.33660042
-1.3315437 0.19756153 0.6513574 -0.11660799 0.5704879 -0.9344762 0.099370696 0.015567734
-1.1193273 -0.23186246 0.6529573 0.3844673 -0.61482203 0.12006523 -0.08016934 -0.22089623
0.25586632 0.89374197 -0.3958709 -0.8340966 -0.09750596 0.13444412 -0.023803396 0.52802444
-0.84917897 -0.15814687 -0.2613704 0.45199457 -0.28137255 -0.06949869 -0.49787885 -1.0308174
-1.0306784 -1.4656736 0.15480278 -0.41757062 -1.1419108 -0.34453622 0.13601583 -0.072166845
-1.7796152 0.09430676 0.52439 0.23533702 -0.043304875 0.22357099 -0.2369368 -0.30036017
-0.16557994 0.42226875 -0.6955343 -0.21626271 0.2549878 -0.52442014 0.48910654 -0.39485127
-0.1710852 -0.35345864 -0.3103542 -0.22713217 0.019048618 -0.2993062 -0.22034319 -1.2608225
-0.4932197 -1.9963094 -0.049117103 -0.63473463 -0.5910984 0.16170025 -0.064154305 -0.18875927
-0.13339138 0.010336736 -0.4099689 0.061291154 -0.29877853 0.7676177 -1.6623335 0.13532454
-0.54461557 0.15810639 0.3350037 -0.6842368 0.04358886 -0.14381413 0.34042504 -0.39882758
-0.06573323 0.10915863 -0.2682742 -0.3186037 0.1031866 -0.18864144 0.13162342 0.6222609
-0.32097185 -0.009098497 -0.00025605917 -0.35004625 -0.27385584 -0.24485604 0.16103671 0.012607335
0.815537 0.47655705 -0.118927285 0.3688607 0.3119575 -0.9262343 -0.33280918 0.2707562
-0.48330066 0.6944834 -0.0053934003 -0.29593414 0.5549456 0.46744305 -0.24764532 -0.15837696
1.3578604 0.11342554 -1.3380252 0.46868244 -0.1222704 -0.27679837 -0.17887247 -0.26397994
-0.10378122 0.1291617 -0.54206765 -0.11954469 -0.30096644 1.2222747 0.28087452 0.30015233
1.1103419 -0.40114537 -0.005054111 -0.31954554 -0.17781137 -0.24714923 0.3633378 -0.5164963
-0.37221447 -0.7936931 0.10325249 0.51806134 -0.24407844 0.22432944 -0.21716361 -0.05076079
-0.21663703 0.515636 0.05368337 -0.42983007 0.33856457 -0.3292424 -0.21062961 0.8086703
-0.69617 0.8271799 -0.7449232 -0.23243427 -0.66741496 -0.75601625 0.05022216 0.144974
-0.35272083 -0.26864186 -0.23552348 0.2143393 -0.2132131 0.29282627 -0.18331891 -0.023384012
-0.35615724 0.0049659815 -0.2957678 0.23859249 -0.3266447 0.008251834 -0.12465203 -0.2881956
0.018661026 -0.2861343 -0.5629974 0.24238135 0.024963219 -0.072494745 -0.05712501 -0.22824207
-0.2577865 -0.35817236 -0.1977751 -0.20182188 0.06053547 -0.27046508 0.15017343 -0.0032865515
00000000: e54b 15bf 7215 93bf 3c97 3dbf e65e b53e
00000010: 5f7b 7c3e aca9 f13d 634b 19be 9a10 ecbd
00000020: cad0 5f3f 09d1 0abe 4ead 19c0 40e8 0ec0
00000030: df6e 123e 3584 54bf a40c 8bbf 2e33 62be
00000040: 07be 973f 74cb 273f 0441 293f bc66 323e
00000050: 8836 ecbd 164a 503f 662a be3e f6de 96bd
00000060: 880d 15bf 96c0 debf 2305 b03e ed08 5d3e
00000070: 9774 abbc 615f 283f ffd4 05bf 43b3 fabe
00000080: 2dae 57be f7c5 083f a530 21bc 9a53 13be
00000090: 1d41 febd 3c3b a1bf ad4a 083e 659b 163e
000000a0: dbe0 11be 9104 c7bf c8a9 dbbd 54ee 863d
000000b0: a546 12bc 7dc2 ff3d 28b0 923e 4d4b c63e
000000c0: 87c6 c4be a07f 9dbf 88a3 10bf e97c 2abf
000000d0: 05dc 5cbe c2e2 e9be 9e31 74bf e456 acbe
000000e0: 0670 aabf 924d 4a3e 5cbf 263f 2bd0 eebd
000000f0: 7f0b 123f d539 6fbf dd82 cb3d cf0f 7f3c
00000100: 1e46 8fbf 5a6d 6dbe 3628 273f e6d8 c43e
00000110: fa64 1dbf c2e4 f53d d32f a4bd 9f32 62be
00000120: e900 833e 46cc 643f 97af cabe 5b87 55bf
00000130: 34b1 c7bd b8ab 093e 57ff c2bc 9c2c 073f
00000140: cb63 59bf 41f1 21be 57d2 85be d56b e73e
00000150: 1010 90be 5455 8ebd fae9 febe d3f1 83bf
00000160: 45ed 83bf 319b bbbf 9f84 1e3e d1cb d5be
00000170: 222a 92bf 0d67 b0be bc47 0b3e 36cc 93bd
00000180: 6eca e3bf e723 c13d 6c3e 063f 30fc 703e
00000190: 7460 31bd cbef 643e 8f9f 72be cfc8 99be
000001a0: ca8d 29be 9c33 d83e 890e 32bf f973 5dbe
000001b0: c38d 823e 6640 06bf 2c6c fa3e f229 cabe
000001c0: f530 2fbe 88f8 b4be bfe6 9ebe 5695 68be
000001d0: d90b 9c3c aa3e 99be a5a1 61be a262 a1bf
000001e0: 4b87 fcbe 1187 ffbf 042f 49bd f87d 22bf
000001f0: 3a52 17bf c094 253e 5563 83bd 1c4a 41be
00000200: c097 08be 6a5b 293c 72e7 d1be 6f0c 7b3d
00000210: 80f9 98be 9882 443f 58c7 d4bf 8492 0a3e
00000220: ed6b 0bbf a4e6 213e 9b85 ab3e 252a 2fbf
00000230: 3c8a 323d 0344 13be 314c ae3e 2133 ccbe
00000240: 259f 86bd 8f8e df3d 3c5b 89be 0620 a3be
00000250: 7f53 d33d 392b 41be 4ac8 063e 7e4c 1f3f
00000260: 6c56 a4be dd11 15bc ae3f 86b9 4339 b3be
00000270: d536 8cbe 8bbb 7abe cfe6 243e ff8e 4e3c
00000280: 08c7 503f 49ff f33e 2690 f3bd 4fdb bc3e
00000290: e5b8 9f3e b11d 6dbf f765 aabe 8fa0 8a3e
000002a0: 2f73 f7be aac9 313f 1fbb b0bb ae84 97be
000002b0: ea10 0e3f b254 ef3e bc96 7dbe 922d 22be
000002c0: 5fce ad3f a64b e83d 6944 abbf 25f7 ef3e
000002d0: e768 fabd 84b8 8dbe 582a 37be 6128 87be
000002e0: 408b d4bd f742 043e f2c4 0abf d9d3 f4bd
000002f0: 4618 9abe 7f73 9c3f c9ce 8f3e 91ad 993e
00000300: af1f 8e3f ed62 cdbe f59c a5bb 799b a3be
00000310: 2f14 36be b014 7dbe 6a07 ba3e 1a39 04bf
00000320: e592 bebe 792f 4bbf 0b76 d33d ab9f 043f
00000330: b3ef 79be 9eb6 653e 2360 5ebe 8cea 4fbd
00000340: 19d6 5dbe b900 043f 18e3 5b3d b012 dcbe
00000350: 5658 ad3e 7692 a8be 4aaf 57be 0405 4f3f
00000360: 3238 32bf 10c2 533f 49b3 3ebf 4003 6ebe
00000370: b5db 2abf 488a 41bf c0b5 4d3d 1074 143e
00000380: d397 b4be 6d8b 89be 112d 71be c37b 5b3e
00000390: 8954 5abe 53ed 953e f4b7 3bbe d48f bfbc
000003a0: 3e5a b6be acb9 a23b e16e 97be 9751 743e
000003b0: f93d a7be b332 073c 9049 ffbd 608e 93be
000003c0: 02df 983c 3280 92be 9920 10bf d132 783e
000003d0: aa7f cc3c 2078 94bd eafb 69bd 4ab8 69be
000003e0: 98fc 83be 5e62 b7be 8e85 4abe 65aa 4ebe
000003f0: 0af4 773d 667a 8abe 10c7 193e 2f63 57bb

model.1.fc_residual.bias f4 [16]
-0.12131837 0.096930906 0.44826597 0.17988789 -0.32822654 -0.36101848 0.002461074 -0.059921876
-0.028654985 0.07643492 0.4619233 0.2984081 -0.2757978 0.48934254 0.12733604 0.14489757
00000000: c475 f8bd b683 c63d 1e83 e53e 8834 383e
00000010: 4f0d a8be 6ad7 b8be f849 213b a470 75bd
00000020: dcbd eabc e989 9c3d 3681 ec3e f2c8 983e
00000030: 5f35 8dbe 1b8b fa3e 6164 023e 0760 143e

model.2.fc1.weight f4 [8, 16]
-0.13919789 -0.3500348 -1.4236072 0.021831758 -0.06349044 -0.052340593 -0.08996461 0.23083225
-0.12098529 -0.50584143 0.11989559 -0.5858019 0.37028277 0.37860444 -0.26874107 -0.07509117
-1.2647191 -1.1156421 -0.12440156 0.35242376 -0.6521617 -0.6499278 0.2998588 -0.4640811
-0.41987392 0.062281024 -0.77399135 0.008296561 -0.2934113 -0.059119195 0.22040813 0.16912249
-0.9873988 -0.8226605 -0.08774787 -0.022550855 -0.43994674 -0.5075415 0.23278306 0.38547817
-0.12357862 0.020450858 -0.795798 -0.11899733 0.4744672 -0.039544567 -0.14284566 0.061834186
-0.33996347 -0.04042955 -1.4522897 0.022918051 0.11911137 0.11768352 -0.3003395 0.09525226
-0.3109632 -0.054244585 -0.14988469 -0.35714665 0.2124146 0.61023366 -0.85762745 -0.21667038
-0.1022046 0.036962938 -0.2316753 0.04975497 -0.03783912 -0.025676314 -0.39209545 0.19489771
-0.2557008 -0.43659854 -0.28841403 0.23992826 0.5015464 0.2834232 0.14453623 -0.27382675
-0.14539361 -0.15188482 0.3901284 0.5903487 -0.57810944 -0.56047034 0.11612764 0.46881032
-0.31134737 0.064907655 -0.0040322384 -0.004810298 0.32176757 -0.20405184 0.08010077 0.37177524
0.049775735 -0.21754144 0.33413154 -0.4937031 -0.4650551 -0.5099161 -0.8851819 0.09512521
0.22284283 -0.19864729 0.013674877 0.32715815 -0.09993572 -0.46322757 -0.4431128 0.016014924
0.16112055 -0.21019119 -0.03441613 -0.0672174 -0.45668224 0.24800697 0.35033783 0.32983106
-0.44529358 0.4829135 -0.41007698 -0.3856839 -0.008592955 0.16763942 -0.005453925 -0.3284902
00000000: e489 0ebe c337 b3be c338 b6bf 84d8 b23c
00000010: 4707 82bd 1763 56bd 5e3f b8bd 4a5f 6c3e
00000020: 23c7 f7bd d37e 01bf d28b f53d 1df7 15bf
00000030: b495 bd3e 71d8 c13e 6e98 89be 66c9 99bd
00000040: 51e2 a1bf 5ccd 8ebf 3fc6 febd e370 b43e
00000050: 12f4 26bf ab61 26bf 1887 993e 0a9c edbe
00000060: b7f9 d6be 631a 7f3d 4c24 46bf 4dee 073c
00000070: 023a 96be f826 72bd abb2 613e 722e 2d3e
00000080: 2bc6 7cbf e199 52bf 28b5 b3bd 92bc b8bc
00000090: b340 e1be 3dee 01bf af5e 6e3e 655d c53e
000000a0: ca16 fdbd 8f88 a73c 6bb9 4bbf dfb4 f3bd
000000b0: 5ded f23e 7cf9 21bd 2246 12be d845 7d3d
000000c0: b10f aebe 7599 25bd a1e4 b9bf a3be bb3c
000000d0: a9f0 f33d 0f04 f13d 19c6 99be 9e13 c33d
000000e0: 9236 9fbe 922f 5ebd 5f7b 19be eddb b6be
000000f0: 3783 593e 4638 1c3f 798d 5bbf d7de 5dbe
00000100: a550 d1bd 7366 173d 4a3c 6dbe decb 4b3d
00000110: 31fd 1abd 2257 d2bc bcc0 c8be 4493 473e
00000120: 37eb 82be d889 dfbe 01ab 93be c1af 753e
00000130: 5865 003f d81c 913e 4e01 143e 0533 8cbe
00000140: 10e2 14be b287 1bbe e9be c73e 1821 173f
00000150: fbfe 13bf fc7a 0fbf 54d4 ed3d e807 f03e
00000160: ec68 9fbe 4eee 843d de20 84bb b49f 9dbb
00000170: b8be a43e f7f2 50be df0b a43d 5359 be3e
00000180: a4e1 4b3d 2fc3 5ebe 4a13 ab3e a7c6 fcbe
00000190: b41b eebe dd89 02bf 489b 62bf 02d1 c23d
000001a0: e930 643e 326a 4bbe 970c 603c 4681 a73e
000001b0: 19ab ccbd 2a2c edbe aedf e2be bb31 833c
000001c0: c9fc 243e 5c3c 57be eef7 0cbd 47a9 89bd
000001d0: 41d2 e9be 8af5 7d3e 7b5f b33e 9edf a83e
000001e0: 85fd e3be 7040 f73e 9cf5 d1be 5c78 c5be
000001f0: 77c9 0cbc aba9 2b3e d7b6 b2bb de2f a8be

model.2.fc1.bias f4 [8]
0.07615774 0.18846737 0.27303198 0.1352682 -0.32833767 -0.6181913 -0.5657158 -0.95939916
00000000: 97f8 9b3d 97fd 403e d9ca 8b3e bf83 0a3e
00000010: e01b a8be c941 1ebf c0d2 10bf 2f9b 75bf

model.2.fc2.weight f4 [8, 8]
-0.046384662 -0.18030459 0.08045741 0.067524366 -0.37893054 -0.3850627 0.17851683 -0.14114015
-0.6547678 -0.39564192 -0.7164022 0.22553301 0.6836866 0.5435448 -0.28889924 0.6452904
0.3265139 -0.3638792 -0.07949748 0.23766415 0.28219306 -0.44569635 0.3294138 0.032008763
-0.2253482 0.10997588 0.38596255 -0.17754155 -0.058665104 -0.13715339 -0.073448576 0.122641414
-0.13461578 -0.6151694 0.039690465 0.43676576 0.1589364 0.10832197 0.16418813 -0.5420074
0.7003815 -0.3167164 0.4104597 0.115458645 -0.3417193 0.48504454 0.15926749 0.3555904
-0.4204611 0.17580481 -0.516044 -0.00023802658 0.25862926 -0.44681087 0.3335549 0.00066807604
-1.4293453 0.042978138 -1.709052 -1.5702759 -0.038896218 0.21907873 -0.48078638 -0.0022738427
00000000: d8fd 3dbd c4a1 38be dbc6 a43d 374a 8a3d
00000010: 2f03 c2be f026 c5be 1ecd 363e 0b87 10be
00000020: dd9e 27bf 9491 cabe 2266 37bf 20f2 663e
00000030: 1606 2f3f c125 0b3f 9aea 93be c031 253f
00000040: d42c a73e 604e babe 93cf a2bd 3b5e 733e
00000050: 9c7b 903e 5032 e4be eda8 a83e 9f1b 033d
00000060: aec1 66be 093b e13d e29c c53e 74cd 35be
00000070: d24a 70bd f071 0cbe 356c 96bd 6c2b fb3d
00000080: b8d8 09be be7b 1dbf 7892 223d c39f df3e
00000090: 39c0 223e e9d7 dd3d ef20 283e ffc0 0abf
000000a0: 344c 333f a728 a2be c627 d23e 9575 ec3d
000000b0: d5f5 aebe c257 f83e 0417 233e f20f b63e
000000c0: ad46 d7be 2d06 343e 761b 04bf c696 79b9
000000d0: 0e6b 843e 65c4 e4be b5c7 aa3e d321 2f3a
000000e0: c9f4 b6bf d809 303d 37c2 dabf cdfe c8bf
000000f0: a451 1fbd 2d56 603e a229 f6be c004 15bb

model.2.fc2.bias f4 [8]
0.07747363 0.07174591 -0.106672846 0.35830653 0.19441867 0.3287473 0.470768 0.17949475
00000000: 7faa 9e3d 85ef 923d 4b77 dabd f473 b73e
00000010: b015 473e 9151 a83e 8108 f13e 79cd 373e

model.2.fc_residual.weight f4 [8, 16]
0.29097465 -0.69852775 0.13068542 -3.2928488 -0.16367579 -0.2245747 0.039980017 0.3209352
-0.14599939 0.32366163 0.26872423 -1.608789 0.34670332 0.5212091 -0.7242889 0.06881329
0.048294358 0.02976207 0.08886185 -2.9764235 -0.26574102 0.31528905 -0.49661708 -0.13868688
-0.15711905 0.09505217 0.22065333 -0.52744824 -0.12955979 0.2928969 -0.20268837 0.467392
-0.12151136 -0.45352635 0.3501345 0.092434525 -0.478894 -0.2158455 -0.18960072 0.2176707
0.2312288 -0.28155962 -0.58707243 0.28067428 0.33321622 0.34008548 -0.026882723 -0.32776943
-2.9905224 0.24068727 0.6645538 0.4708663 0.21276301 -0.3899396 -0.17184976 0.33106747
-0.2849518 0.48876694 0.37921754 0.62072235 -0.25655195 0.2281356 0.68509924 0.1550812
-2.2958033 -1.0001205 0.39634705 0.09783165 -0.2215545 -0.24951877 -0.021530805 -0.26480693
-0.437609 0.34223643 0.15133183 0.6566433 -0.19240181 0.4932647 -0.31353742 0.37947595
-0.12310247 0.079775974 0.6141685 0.21535267 0.06803854 0.08536077 0.6643689 -0.16134822
0.2807334 -0.017362535 -0.2345993 0.5647003 0.21855675 -0.16037288 0.454256 0.079366945
0.47365406 0.081899315 0.028588481 0.15997939 0.27649003 -0.51877713 0.0867476 0.22544214
-0.5426794 0.11907552 0.2996159 0.36614054 -0.32006302 0.49847618 0.0067088846 0.45423812
-2.4720924 0.017106576 0.36137024 0.1451201 -0.809815 -1.5779402 -3.6648126 0.14519066
0.056279436 -0.5458798 0.053871788 0.5461505 -0.22295569 0.86774236 0.0135397585 -0.74928737
00000000: a1fa 943e b7d2 32bf 66d2 053e 09be 52c0
00000010: a09a 27be e9f6 65be 16c2 233d 9e51 a43e
00000020: dd80 15be fab6 a53e 3996 893e ccec cdbf
00000030: 1983 b13e f66d 053f ff6a 39bf fbed 8c3d
00000040: 4ed0 453d 96cf f33c 34fd b53d b97d 3ec0
00000050: 350f 88be 916d a13e 9844 febe ef03 0ebe
00000060: d1e3 20be b6aa c23d f2f2 613e d906 07bf
00000070: 52ab 04be 95f6 953e 8a8d 4fbe 014e ef3e
00000080: f3da f8bd 9b34 e8be d444 b33e 504e bd3d
00000090: 9831 f5be 9a06 5dbe b126 42be 11e5 5e3e
000000a0: 3ec7 6c3e 9528 90be 614a 16bf 8ab4 8f3e
000000b0: 519b aa3e af1f ae3e 2839 dcbc 65d1 a7be
000000c0: b864 3fc0 b976 763e 3320 2a3f 6315 f13e
000000d0: 8cde 593e 2aa6 c7be 62f9 2fbe ad81 a93e
000000e0: 34e5 91be a93f fa3e cd28 c23e a9e7 1e3f
000000f0: c75a 83be 619c 693e aa62 2f3f 9bcd 1e3e
00000100: 71ee 12c0 f303 80bf 00ee ca3e f65b c83d
00000110: 2fdf 62be d981 7fbe 5f61 b0bc c694 87be
00000120: 490e e0be 9d39 af3e bbf6 1a3e c619 283f
00000130: fb04 45be 318d fc3e fa87 a0be ac4a c23e
00000140: 261d fcbd 9661 a33d 263a 1d3f 6985 5c3e
00000150: ca57 8b3d a1d1 ae3d 1514 2a3f 7838 25be
00000160: 4abc 8f3e e03b 8ebc cd3a 70be 3390 103f
00000170: 57cd 5f3e ca38 24be 3e94 e83e 238b a23d
00000180: c982 f23e d4ba a73d 6432 ea3c a3d1 233e
00000190: 1a90 8d3e 94ce 04bf baa8 b13d 4eda 663e
000001a0: 0aed 0abf dedd f33d 4167 993e c676 bb3e
000001b0: 4ddf a3be 4538 ff3e 34d6 db3b e691 e83e
000001c0: c336 1ec0 1723 8c3c 8505 b93e 5d9a 143e
000001d0: 0950 4fbf f2f9 c9bf 4a8c 6ac0 dcac 143e
000001e0: 4485 663d c7be 0bbf aaa8 5c3d 85d0 0b3f
000001f0: 7f4e 64be 5d24 5e3f ddd5 5d3c 4cd1 3fbf

model.2.fc_residual.bias f4 [8]
0.5045567 0.110468976 -0.20129488 0.66639394 0.18739909 0.26336393 0.2120533 0.35944661
00000000: a12a 013f 8f3d e23d 3f20 4ebe cb98 2a3f
00000010: 8ce5 3f3e a3d7 863e 8024 593e 6309 b83e

model.3.weight f4 [1, 8]
-0.9979448 -0.08730515 -0.32215083 0.9413442 0.22928481 0.25285834 0.564547 0.8324163
00000000: 4f79 7fbf 0bcd b2bd f4f0 a4be effb 703f
00000010: a3c9 6a3e a676 813e 2786 103f 3c19 553f
